swallow_detector_gru_mobile_quantized_7.pt (torch, 617369 bytes, 17 tensors)

weight f4 [64, 1, 3, 3]
0.27328384 0.22530426 0.008928339 0.3122042 -0.093168855 0.16506504 -0.10547613 0.13141373
0.37245592 -0.19027218 0.3734228 0.052067272 0.261799 0.110567264 0.16400164 -0.014067277
0.34503078 0.055821657 -0.130047 0.044158816 -0.21083769 -0.008239009 -0.17251477 0.15160221
-0.23437195 -0.18402566 -0.13878667 -0.13031307 0.06866345 -0.28867912 0.3583815 -0.22888058
0.27357212 0.13628238 -0.093508855 0.19993377 0.044313114 0.40732273 0.005579267 -0.09038884
0.28390127 -0.11220065 0.11681586 0.34659833 0.13855247 -0.099118315 0.2365677 0.054662958
0.22048597 -0.13891265 -0.43785036 -0.11666883 -0.18255898 0.23247951 0.092442326 0.15602595
0.13846593 -0.0157366 0.2756378 -0.18913402 0.004743343 -0.21579246 0.16965461 -0.13045566
0.0368294 -0.034142323 0.29817456 -0.26485908 -0.20776293 -0.17096707 0.20685808 0.18320379
0.30119893 -0.2443316 -0.34204698 -0.27443263 -0.20489615 0.14888802 0.13128343 0.32107937
-0.10297241 -0.18074386 0.14496596 -0.22204731 0.27597153 -0.085061304 0.20531684 -0.23043954
-0.1674912 0.0020966528 0.14744426 -0.04574959 0.1336518 0.29094726 -0.18325439 -0.20002216
0.35811076 -0.057143286 -0.14371762 -0.35373083 -0.15805936 -0.011279347 -0.07263257 -0.20297125
-0.090615265 -0.2351045 -0.25317875 -0.27999046 -0.261971 -0.24654339 0.30811718 0.09332176
0.07365462 -0.34651348 -0.19682465 -0.132267 -0.006777428 -0.26866966 -0.14002241 -0.28269613
0.028568968 -0.1151302 -0.10096419 -0.18213089 -0.22039431 -0.26771092 -0.033959724 -0.18948749
0.28594452 -0.058142755 0.32762533 0.111608595 -0.24096881 0.29324543 -0.107334085 -0.076168485
-0.28598812 -0.45893708 0.16092199 -0.0948487 -0.015156761 -0.20349428 0.19037823 -0.34833553
-0.005351713 0.10092317 0.18477197 0.2751327 0.32368526 -0.24334961 0.10977048 -0.09281671
-0.029388001 -0.18201673 0.39842957 -0.30671117 0.21024266 0.16396275 0.024243074 -0.119713075
0.33049953 -0.048463676 0.16890146 -0.20726283 0.13622053 0.10181514 -0.14413813 0.23967588
0.223664 -0.030210089 -0.12334748 0.056140803 0.081296265 -0.25749117 -0.102213494 -0.14048663
-0.36936334 0.16391139 0.17699318 -0.42069373 0.092012025 0.16996239 0.093108855 -0.11403164
0.176375 0.18934035 0.12669559 -0.048832517 -0.057518367 0.03185818 0.015392412 -0.14006452
0.19204932 0.28723413 -0.09699002 -0.06347696 0.06919804 -0.101190485 0.12663296 0.027278135
-0.25683725 -0.1023524 0.21403486 0.21084169 -0.03259259 -0.2810194 -0.14852105 -0.2515209
-0.13632831 0.07389824 0.30212605 0.14922704 -0.32710028 -0.099113196 -0.021950347 0.31302455
0.023004206 -0.06154652 0.1275044 -0.16769364 -0.1947654 0.21434931 -0.20034605 -0.01853818
-0.32382455 0.17813972 0.21789035 0.14227462 -0.2773975 -0.36852926 -0.35722506 0.16835424
0.15373121 0.24910374 0.1697412 0.1547833 0.0129093435 -0.36044082 -0.2080716 -0.3803659
0.07190604 -0.059171136 -0.076081865 -0.13295102 -0.10278866 -0.33321694 -0.16420947 0.07998919
-0.2098204 0.2265423 -0.120608635 -0.314801 0.013965907 -0.23979159 -0.055275317 -0.25403002
00000000: dceb 8b3e 29b6 663e 2b48 123c 3bd9 9f3e
00000010: 50cf bebd cf06 293e df03 d8bd 5291 063e
00000020: 8bb2 be3e b6d6 42be 4631 bf3e 7e44 553d
00000030: 850a 863e 1771 e23d 0cf0 273e 707a 66bc
00000040: e0a7 b03e 40a5 643d 0a2b 05be e0df 343d
00000050: d6e5 57be e9fc 06bc b6a7 30be 9c3d 1b3e
00000060: 33ff 6fbe 3971 3cbe 181e 0ebe ca70 05be
00000070: 6c9f 8c3d c0cd 93be c87d b73e ac5f 6abe
00000080: a511 8c3e 9c8d 0b3e 9281 bfbd 70bb 4c3e
00000090: ab81 353d 9b8c d03e 49d2 b63b c91d b9bd
000000a0: 825b 913e 74c9 e5bd 273d ef3d 5675 b13e
000000b0: b3e0 0d3e 8bfe cabd ce3e 723e 44e6 5f3d
000000c0: 13c7 613e 1e3f 0ebe ec2d e0be 11f0 eebd
000000d0: bef0 3abe 1c0f 6e3e 6752 bd3d 44c5 1f3e
000000e0: 03ca 0d3e 0bea 80bc 6620 8d3e 59ac 41be
000000f0: 0c6e 9b3b b3f8 5cbe f0b9 2d3e 2b96 05be
00000100: 6dda 163d d2d8 0bbd 56aa 983e 9c9b 87be
00000110: cebf 54be fe11 2fbe 9bd2 533e c699 3b3e
00000120: bf36 9a3e 1032 7abe c820 afbe 6f82 8cbe
00000130: 4cd0 51be 1a76 183e 2a6f 063e 8464 a43e
00000140: 33e3 d2bd eb14 39be f571 143e 5f60 63be
00000150: 244c 8d3e 9f34 aebd 943e 523e 58f8 6bbe
00000160: d082 2bbe ff67 093b a1fb 163e ec63 3bbd
00000170: 04dc 083e 0af7 943e 0aa7 3bbe 9cd2 4cbe
00000180: 4b5a b73e 140f 6abd b62a 13be 351c b5be
00000190: 50da 21be 03cd 38bc 63c0 94bd b2d7 4fbe
000001a0: 7f94 b9bd 3cbf 70be a5a0 81be e95a 8fbe
000001b0: 1021 86be df75 7cbe 89c1 9d3e 7b1f bf3d
000001c0: 3cd8 963d 376a b1be 678c 49be 0071 07be
000001d0: 3015 debb 128f 89be 0962 0fbe 8cbd 90be
000001e0: 7809 ea3c 62c9 ebbd 50c6 cebd 8580 3abe
000001f0: 0caf 61be 6811 89be 5a19 0bbd 0209 42be
00000200: 5267 923e 1927 6ebd 82be a73e 0c93 e43d
00000210: 87c0 76be 4424 963e f9d1 dbbd 39fe 9bbd
00000220: 096d 92be cdf9 eabe bcc8 243e 0940 c2bd
00000230: 1054 78bc ce60 50be 83f2 423e 0959 b2be
00000240: 6c5d afbb cfb0 ce3d dd34 3d3e 31de 8c3e
00000250: 13ba a53e a430 79be 58cf e03d b016 bebd
00000260: 1bbf f0bc 9862 3abe f6fe cb3e 3f09 9dbe
00000270: da49 573e dae5 273e 6999 c63c 212c f5bd
00000280: 3c37 a93e d981 46bd 81f4 2c3e b53c 54be
00000290: 657d 0b3e 7584 d03d f298 13be 986d 753e
000002a0: 2d08 653e 267b f7bc 9b9d fcbd e6f3 653d
000002b0: a87e a63d e2d5 83be 4f55 d1bd badb 0fbe
000002c0: 311d bdbe 63d8 273e b33d 353e 2b65 d7be
000002d0: cd70 bc3d 9f0a 2e3e dbaf be3d 6c89 e9bd
000002e0: a69b 343e 70e2 413e 7dbc 013e 9b04 48bd
000002f0: 6198 6bbd b97d 023d 7530 7c3c 136d 0fbe
00000300: 94a8 443e 5a10 933e b4a2 c6bd 3500 82bd
00000310: b4b7 8d3d f53c cfbd 12ac 013e 6576 df3c
00000320: 2c80 83be 239e d1bd f42b 5b3e e2e6 573e
00000330: cf7f 05bd c6e1 8fbe e715 18be 59c7 80be
00000340: a699 0bbe f657 973d 44b0 9a3e f9ce 183e
00000350: b079 a7be dcfb cabd 37d1 b3bc c144 a03e
00000360: 5173 bc3c 3418 7cbd 8390 023e e2b7 2bbe
00000370: 9570 47be 637e 5b3e 8427 4dbe 62dd 97bc
00000380: 55cc a5be 426a 363e a61e 5f3e 70b0 113e
00000390: 0c07 8ebe deaf bcbe 34e6 b6be 0e65 2c3e
000003a0: b76b 1d3e 0d15 7f3e a3d0 2d3e 837f 1e3e
000003b0: b681 533c b38b b8be b910 55be 52bf c2be
000003c0: 7943 933d 6f5d 72bd cfd0 9bbd 5024 08be
000003d0: dc82 d2bd 699b aabe 8726 28be 5fd1 a33d
000003e0: 29db 56be b4fa 673e a901 f7bd 992d a1be
000003f0: 42d1 643c ed8b 75be 5f68 62bd 3910 82be

bias f4 [64]
-0.09698066 0.17783101 -0.1644396 -0.15744787 0.20542869 -0.2905025 0.040731426 0.2921185
0.05691664 0.09063142 -0.19402249 -0.004608363 0.01833775 0.08171032 0.1295574 0.2897634
-0.25448406 0.010081914 -0.16646633 -0.26394618 -0.0267141 -0.29331875 0.2332603 0.039512727
-0.17966825 0.1746552 -0.3156499 -0.12867883 -0.065657735 -0.28300846 -0.21187046 -0.054498475
0.25278375 0.3219238 0.2120423 -0.19923878 -0.21796486 0.29132116 0.11782572 0.008860552
0.045319285 -0.26789048 -0.11117243 0.31993982 -0.08215478 -0.016722247 -0.2767046 -0.18715036
-0.0064365575 -0.20703258 -0.040212873 0.13571194 -0.32620147 0.09868585 -0.22022502 -0.16268815
0.12804747 0.26503977 -0.091015875 -0.13678928 -0.30135888 -0.17173271 -0.29146075 -0.07661273
00000000: cc9d c6bd 5519 363e db62 28be 043a 21be
00000010: e65b 523e bebc 94be ffd5 263d 8e90 953e
00000020: 6c21 693d f79c b93d d5ad 46be c001 97bb
00000030: 0d39 963c be57 a73d b2aa 043e de5b 943e
00000040: bc4b 82be 9d2e 253c 2676 2abe f423 87be
00000050: 87d7 dabc e02d 96be cadb 6e3e 19d8 213d
00000060: f4fa 37be d0d8 323e dd9c a1be 62c4 03be
00000070: 9077 86bd 7ce6 90be 92f4 58be cb39 5fbd
00000080: df6c 813e 32d3 a43e 9e21 593e 4005 4cbe
00000090: 2e32 5fbe 0c28 953e 9c4e f13d d92b 113c
000000a0: b7a0 393d f128 89be 5fae e3bd 27cf a33e
000000b0: c440 a8bd 18fd 88bc 3aac 8dbe 58a4 3fbe
000000c0: c2e9 d2bb 5900 54be 41b6 24bd 12f8 0a3e
000000d0: e103 a7be cf1b ca3d ab82 61be b997 26be
000000e0: e01e 033e 4bb3 873e 8866 babd 7d12 0cbe
000000f0: b64b 9abe b3da 2fbe 583a 95be 23e7 9cbd

weight f4 [64]
1.031024 1.0144606 0.9306723 0.95586324 1.0254668 0.99914473 1.0196103 1.0435311
1.0205722 0.94180095 0.9777246 0.90268844 0.86950094 0.9334448 0.9299113 1.0065088
1.0076429 0.9840495 0.9170469 1.1333137 1.0163271 1.0505047 1.0526916 0.9716063
0.95590544 1.0966017 1.0618484 1.0458902 0.9939493 1.0168215 0.94625413 0.9155979
1.0015614 0.95772517 0.9492823 1.0020049 1.0011919 1.0396174 0.95104647 0.9633564
1.045117 0.94127405 1.0040783 1.029205 0.9500023 0.93501496 1.0315684 1.0406255
1.0516475 1.0091159 1.1081204 0.9405526 1.0598811 0.9919262 1.043788 0.9166864
1.0507019 0.92770123 0.94932693 0.9245548 1.0197581 0.9495767 1.1053451 1.0552745
00000000: 98f8 833f d8d9 813f 8a40 6e3f 74b3 743f
00000010: 7f42 833f f3c7 7f3f 9782 823f 6d92 853f
00000020: 1ca2 823f de19 713f 294c 7a3f 9716 673f
00000030: 9d97 5e3f 3df6 6e3f ab0e 6e3f 48d5 803f
00000040: 71fa 803f abea 7b3f 96c3 6a3f 6c10 913f
00000050: 0217 823f f076 863f 99be 863f 31bb 783f
00000060: 38b6 743f 725d 8c3f a6ea 873f bbdf 853f
00000070: 7673 7e3f 3527 823f b63d 723f a064 6a3f
00000080: 2a33 803f 7a2d 753f 2a04 733f b241 803f
00000090: 0e27 803f 2f12 853f c877 733f 869e 763f
000000a0: 65c6 853f 56f7 703f a385 803f fdbc 833f
000000b0: 5a33 733f 245d 6f3f 6f0a 843f 3733 853f
000000c0: 639c 863f b62a 813f e4d6 8d3f 0ec8 703f
000000d0: 2faa 873f e0ee 7d3f d89a 853f f6ab 6a3f
000000e0: 667d 863f d47d 6d3f 1707 733f a0af 6c3f
000000f0: 6f87 823f 7517 733f f37b 8d3f 3c13 873f

bias f4 [64]
0.021592366 0.026113017 0.06959761 0.033251405 -0.040604968 0.001006854 -0.024696067 -0.016849097
0.0042792778 0.03137677 -0.0012426358 0.08482393 0.08192369 0.13224983 -0.040646296 -0.023891617
-0.069379926 -0.039482266 0.045106772 -0.0061373287 -0.0069341124 -0.06944278 -0.013979678 0.00695097
0.014230655 -0.03286779 0.03036181 -0.015208883 -0.0001727626 -0.026953945 -0.01369782 0.09110489
-0.023827346 0.11539443 0.010836238 0.011638401 0.06491025 0.030605653 0.017017486 -0.03903484
-0.038905643 -0.009635179 -0.027237998 -0.051140126 -0.017166924 0.016364858 -0.04792189 -0.048780065
-0.011714806 -0.024585923 0.025244007 0.09921015 -0.022254353 -0.051127225 0.0557729 0.02864728
-0.005090104 0.007569868 -0.010356281 -0.0093469685 -0.0017364324 -0.0047056484 0.013599445 0.020060875
00000000: 79e2 b03c f7ea d53c 3189 8e3d a032 083d
00000010: 6551 26bd 6af8 833a 684f cabc 1e07 8abc
00000020: 2f39 8c3b ee84 003d f0df a2ba 2bb8 ad3d
00000030: 9cc7 a73d 806c 073e bb7c 26bd 5ab8 c3bc
00000040: 1017 8ebd 28b8 21bd e1c1 383d a51b c9bb
00000050: 8d37 e3bb 0438 8ebd 050b 65bc f6c4 e33b
00000060: b127 693c 60a0 06bd 55b9 f83c ae2e 79bc
00000070: 9b27 35b9 85ce dcbc d26c 60bc 3395 ba3d
00000080: 9131 c3bc ea53 ec3d 7a8a 313c feae 3e3c
00000090: aaef 843d b5b8 fa3c 4168 8b3c ffe2 1fbd
000000a0: 865b 1fbd dfdc 1dbc 3922 dfbc 4f78 51bd
000000b0: a6a1 8cbc 980f 863c be49 44bd 9bcd 47bd
000000c0: 75ef 3fbc 6b68 c9bc 85cc ce3c b12e cb3d
000000d0: c34e b6bc c86a 51bd 2072 643d b3ad ea3c
000000e0: e3ca a6bb a80c f83b 64ad 29bc 0724 19bc
000000f0: 0199 e3ba d731 9abb 35d0 5e3c b456 a43c

running_mean f4 [64]
-1.883498 -4.0400214 3.1628165 0.14176372 -6.7018538 -0.68031675 -1.295096 0.093943164
-1.5801903 1.5153372 -4.613816 6.061585 3.9263413 2.2417057 1.0200447 -2.2305818
-5.430685 -6.9560947 0.5327369 -7.406744 -1.3466736 -5.641462 -0.52614033 0.56044257
3.9675775 0.042124182 -1.144038 -3.424049 0.3989944 -8.063855 -0.5223038 4.05004
-4.7863526 3.129595 -1.6138731 -3.5430715 -1.1587973 -5.9269276 -4.10651 4.5948615
-2.525168 -2.1580303 0.19556166 0.13047567 5.4702764 -0.97492206 -6.2057557 -1.312464
-1.5769336 -7.593537 0.050083436 3.5679264 -5.432524 -2.1788511 -0.38253438 3.969536
-0.5069596 3.4401295 -1.829186 -1.0623027 -4.7058935 -1.7633159 -1.3840822 -2.5124023
00000000: 7616 f1bf db47 81c0 966b 4a40 822a 113e
00000010: 9675 d6c0 3d29 2ebf b5c5 a5bf 4665 c03d
00000020: ad43 cabf 92f6 c13f 61a4 93c0 81f8 c140
00000030: 2d49 7b40 1b78 0f40 d390 823f dac1 0ec0
00000040: 2cc8 adc0 5498 dec0 7261 083f 0c04 edc0
00000050: cd5f acbf db86 b4c0 22b1 06bf 2a79 0f3f
00000060: caec 7d40 688a 2c3d d66f 92bf 9e23 5bc0
00000070: fe48 cc3e 8d05 01c1 b4b5 05bf ed99 8140
00000080: cd29 99c0 494b 4840 6593 cebf afc1 62c0
00000090: 7853 94bf 64a9 bdc0 8868 83c0 1b09 9340
000000a0: 5a9c 21c0 2b1d 0ac0 5141 483e 6a9b 053e
000000b0: 810c af40 7e94 79bf 8d95 c6c0 d2fe a7bf
000000c0: f6d8 c9bf 41fe f2c0 4a24 4d3d e858 6440
000000d0: 3dd7 adc0 4c72 0bc0 8cdb c3be e10c 7e40
000000e0: 1bc8 01bf 152b 5c40 c422 eabf 89f9 87bf
000000f0: ae96 96c0 56b4 e1bf 9b29 b1bf 33cb 20c0

running_var f4 [64]
1389.8002 3789.0696 1100.1082 1622.7697 6590.208 94.26497 298.85074 47.340477
381.19522 184.61092 5044.2065 3681.2512 1131.0225 1515.1709 2111.3584 268.02466
1480.2253 5878.815 3059.1814 983.7858 454.1238 1286.858 51.211792 56.20727
1067.7058 83.233116 165.3462 235.14987 69.03983 2711.3188 259.12738 1967.5175
1118.8402 855.4894 3926.2834 2989.9207 625.8943 1619.0883 2103.1748 456.1103
148.32925 2585.2112 127.81499 41.039883 1196.3175 2808.5466 1173.1597 97.30396
57.210434 7223.1475 84.23177 1262.041 3190.685 154.04277 1447.2441 425.00024
88.54335 2976.4438 2542.204 1317.1189 3508.5344 2019.4142 123.13591 381.54834
00000000: 9bb9 ad44 1dd1 6c45 7683 8944 a1d8 ca44
00000010: aaf1 cd45 aa87 bc42 e56c 9543 a65c 3d42
00000020: fd98 be43 659c 3843 a7a1 9d45 0514 6645
00000030: b860 8d44 7865 bd44 bcf5 0345 2803 8643
00000040: 3607 b944 85b6 b745 e732 3f45 4bf2 7544
00000050: d90f e343 75db a044 e0d8 4c42 3fd4 6042
00000060: 9676 8544 5b77 a642 a158 2543 5e26 6b43
00000070: 6514 8a42 1a75 2945 4e90 8143 8ff0 f544
00000080: e3da 8b44 52df 5544 8964 7545 bbde 3a45
00000090: 3c79 1c44 d362 ca44 cc72 0345 1e0e e443
000000a0: 4a54 1443 6193 2145 46a1 ff42 d728 2442
000000b0: 298a 9544 bf88 2f45 1ca5 9244 a19b c242
000000c0: 7cd7 6442 2eb9 e145 ab76 a842 50c1 9d44
000000d0: f66a 4745 f30a 1a43 d0e7 b444 0880 d443
000000e0: 3216 b142 1a07 3a45 44e3 1e45 cea3 a444
000000f0: 8d48 5b45 416d fc44 9645 f642 30c6 be43

weight f4 [128, 64, 3, 3]
0.0066695674 -0.037197515 0.016881734 0.023954917 -0.05056861 -0.04527131 -0.013789007 -0.040450558
-0.00010845403 -0.0028737995 0.024176322 -0.014429807 0.042252466 -0.001825414 -0.012141304 0.056166545
-0.0075474684 0.0045269136 0.005422302 0.03675775 -0.0053381557 0.029353874 -0.04497656 -0.012684128
0.056041688 -0.0013870256 -0.07847907 -0.009386185 -0.0055625886 -0.057167277 0.010763302 -0.0011402019
-0.0041986606 0.03879053 -0.06137717 0.021345204 0.009223146 -0.01548973 -0.03846467 -0.017341703
0.011249493 -0.029132204 0.019731978 0.03446174 -0.0021651 0.026931087 -0.06297303 -0.009006731
-0.013086028 -0.04471787 -0.050246928 0.12540986 -0.036226843 -0.07324347 0.020875039 0.021695811
0.048984505 0.019974537 -0.0472429 -0.0095225815 -0.011379382 -0.030192196 -0.006237687 -0.052352034
-0.038861867 -0.03902397 -0.019262888 -0.05124062 -0.032265924 0.017278893 -0.017869499 -0.049422335
-0.039732717 -0.056936525 0.06150235 0.08113839 -0.010032925 -0.05006388 0.011805334 -0.042651482
-0.061697908 0.051303424 0.013017241 0.04024517 0.0152165145 -0.004467712 -0.02344307 0.005488863
-0.06026695 -0.026614368 0.04086876 -0.009605221 -0.07653957 0.02696766 -0.004242971 0.006641977
-0.0023681764 0.003737008 -0.0015444182 0.0012369424 0.01947278 0.04888636 -0.0058282088 0.041076507
-0.04867744 0.012475924 0.023393752 -0.10507719 -0.065194115 0.016679145 0.054396853 0.033822663
-0.026837997 -0.015403375 0.039225407 -0.038639534 -0.10256449 0.03632951 -0.026721794 0.08226671
0.057294425 -0.0023728048 -0.050309118 0.001965988 -0.0507988 -0.047337264 0.049637675 -0.053876
-0.0039350754 0.01904392 -0.0030511976 -0.036716256 -0.021366712 -0.031088948 -0.07279078 0.021611739
-0.05763428 -0.0036951185 -0.033637375 -0.014917698 0.02832188 -0.028919818 -0.005862657 0.007995584
-0.027154954 -0.066786915 0.016989283 -0.017721154 -0.03727946 0.0231383 -0.035054866 0.04005192
0.020738352 -0.06448414 0.020705525 -0.05437051 -0.035459097 -0.013774844 -0.024151716 0.07470836
-0.026368435 0.029701728 -0.035742436 0.016898341 -0.009320838 0.0013745863 -0.014563991 0.0067108367
0.04675459 -0.058128953 -0.048841055 -0.0073931306 0.02362763 0.006697306 0.0029443726 -0.060853474
0.06785722 0.0090364525 -0.04497421 0.06937933 -0.0062049464 0.04209961 -0.02380357 -0.05245125
-0.005906445 -0.020912966 -0.0091463225 -0.021007823 0.0051519163 -0.026520493 0.0026913495 -0.061099693
-0.09116151 -0.027826061 -0.026091645 0.03413628 -0.034033243 -0.0094275605 -0.040655572 -0.034630466
-0.016625281 -0.10415282 -0.09940332 -0.04535055 -0.033944685 -0.0759746 0.005824721 -0.04241886
0.011894702 0.039335713 0.07676123 -0.024440465 -0.08141231 0.0668604 -0.031536426 0.040485825
0.06129815 0.009629493 0.057350263 0.053166904 0.004075665 -0.079316854 0.020210031 -0.023099173
-0.11811215 -0.0326843 0.018131768 -0.0032007673 0.0065340316 -0.05042693 -0.05114059 0.03168162
0.01842354 0.01159293 -0.025025457 -0.024336403 -0.040113963 0.02322292 -0.013425049 -0.058080737
0.036313128 0.006095211 -0.03187662 -0.005266953 0.00031785597 0.039262194 0.022620771 -0.04672643
-0.013958694 -0.02318639 -0.036530856 -0.040263098 -0.0076952823 -0.03737201 -0.010302223 0.065192625
00000000: 638c da3b 6c5c 18bd 904b 8a3c 1a3d c43c
00000010: 0821 4fbd 696e 39bd 4aeb 61bc 7caf 25bd
00000020: d071 e3b8 5b56 3cbb 6c0d c63c ff6a 6cbc
00000030: ec10 2d3d bb42 efba 52ec 46bc e40e 663d
00000040: c150 f7bb 8156 943b 91ad b13b 4b8f 163d
00000050: b2eb aebb 8977 f03c 5739 38bd 17d1 4fbc
00000060: f88b 653d dbcc b5ba a2b9 a0bd 83c8 19bc
00000070: 6046 b6bb 3c28 6abd 9058 303c d472 95ba
00000080: eb94 89bb d2e2 1e3d a166 7bbd 23dc ae3c
00000090: ae1c 173c a3c8 7dbc 218d 1dbd 3010 8ebc
000000a0: cb4f 383c a9a6 eebc f5a4 a13c c127 0d3d
000000b0: 5ae4 0dbb 959e dc3c 01f8 80bd f890 13bc
000000c0: c866 56bc 162a 37bd b9cf 4dbd 716b 003e
000000d0: 9962 14bd ac00 96bd 2102 ab3c 6abb b13c
000000e0: faa3 483d a4a1 a33c c581 41bd 9a04 1cbc
000000f0: 9670 3abc a055 f7bc 8365 ccbb 166f 56bd
00000100: 9f2d 1fbd 99d7 1fbd 34cd 9dbc afe1 51bd
00000110: 4629 04bd 778c 8d3c 0e63 92bc 136f 4abd
00000120: c6be 22bd 4636 69bd e3e9 7b3d e22b a63d
00000130: 2361 24bc c80f 4dbd 296b 413c 52b3 2ebd
00000140: f2b6 7cbd 8a23 523d 4446 553c 1fd8 243d
00000150: b04e 793c e265 92bb ae0b c0bc ecdb b33b
00000160: 7ada 76bd 6006 dabc 0066 273d 385f 1dbc
00000170: c7c0 9cbd 48eb dc3c 9f08 8bbb f1a4 d93b
00000180: 6833 1bbb 97e8 743b 136e caba e620 a23a
00000190: 6185 9f3c 103d 483d 8ffa bebb d73f 283d
000001a0: ff61 47bd d167 4c3c 41a4 bf3c b632 d7bd
000001b0: 7e84 85bd b4a2 883c 3ccf 5e3d a289 0a3d
000001c0: 5cdb dbbc 705e 7cbc d2aa 203d 7d44 1ebd
000001d0: 550d d2bd 41ce 143d aae7 dabc 737b a83d
000001e0: 8fad 6a3d 0f81 1bbb ef10 4ebd ced7 003b
000001f0: 6712 50bd b8e4 41bd e050 4b3d 15ad 5cbd
00000200: cef1 80bb ff01 9c3c 9af6 47bb c963 16bd
00000210: 3e09 afbc 40ae febc 5513 95bd 1a0b b13c
00000220: ec11 6cbd cd29 72bb 58c7 09bd 5c69 74bc
00000230: 4a03 e83c 41e9 ecbc 881b c0bb e9ff 023c
00000240: 1174 debc 94c7 88bd 1c2d 8b3c f42b 91bc
00000250: 59b2 18bd 888c bd3c b195 0fbd 7b0d 243d
00000260: 7ae3 a93c 4310 84bd a29e a93c 9db3 5ebd
00000270: 8f3d 11bd e2af 61bc d2d9 c5bc b200 993d
00000280: 9e02 d8bc 0a51 f33c a966 12bd 646e 8a3c
00000290: 6eb6 18bc 762b b43a ce9d 6ebc 94e6 db3b
000002a0: be81 3f3d a018 6ebd 8f0d 48bd 1342 f2bb
000002b0: bb8e c13c 1375 db3b 60f6 403b 7e41 79bd
000002c0: baf8 8a3d a10d 143c e136 38bd c016 8e3d
000002d0: dd52 cbbb a470 2c3d b4ff c2bc 1fd7 56bd
000002e0: da8a c1bb ab51 abbc 75da 15bc 9918 acbc
000002f0: 68d1 a83b 8141 d9bc 5a61 303b ac43 7abd
00000300: e3b2 babd 7bf3 e3bc 25be d5bc 7cd2 0b3d
00000310: 7166 0bbd 0e76 1abc 7586 26bd add8 0dbd
00000320: be31 88bc 134e d5bd f893 cbbd 80c1 39bd
00000330: 9509 0bbd 9298 9bbd 4ddd be3b 66bf 2dbd
00000340: ffe1 423c 7c1e 213d fe34 9d3d 5f37 c8bc
00000350: 7fbb a6bd 1bee 883d 572c 01bd 77d4 253d
00000360: c513 7b3d 05c5 1d3c 1ce8 6a3d 8ac5 593d
00000370: 288d 853b e070 a2bd 828f a53c 7a3a bdbc
00000380: c8e4 f1bd f9df 05bd 1389 943c f7c3 51bb
00000390: 6e1b d63b 788c 4ebd cc78 51bd 96c4 013d
000003a0: f7ec 963c 46f0 3d3c 3002 cdbc 235d c7bc
000003b0: 8a4e 24bd fe3d be3c bdf4 5bbc 11e6 6dbd
000003c0: 13bd 143d 56ba c73b 0f91 02bd 6796 acbb
000003d0: e8a5 a639 65d1 203d 324f b93c 3764 3fbd
000003e0: 02b3 64bc 62f1 bdbc 61a1 15bd ebea 24bd
000003f0: b528 fcbb 6513 19bd a8ca 28bc b683 853d

bias f4 [128]
0.0007369647 -0.039840505 0.034837015 0.018214347 -0.03821598 0.040747385 0.020708183 -0.0053333365
-0.025049442 -0.0024070202 -0.03762403 0.005829693 0.031681016 0.00882945 0.014592641 0.008828343
-0.0041611088 -0.015511402 -0.038289636 0.013186307 0.032366246 -0.004835566 0.023150751 -0.015016481
-0.008176432 0.042458605 -0.020061804 -0.029078107 0.039783694 0.03255134 -0.040710934 -0.033119567
0.03322649 0.0022410543 0.028784314 -0.03523589 -0.01802069 -0.03164782 0.029007927 0.032674212
0.019336892 0.025229152 0.014961101 0.02920991 -0.02594361 0.02940856 0.010518912 -0.040303886
0.00834384 -0.036898956 -0.033084355 -0.012962766 -0.020302419 -0.03299671 0.021892503 0.0062322845
2.3033746e-05 -0.025657693 0.029296907 -0.036680337 0.026169248 -0.03788348 -0.0382261 0.0012614005
-0.008641714 0.0041130646 0.030809993 0.0022781587 -0.0071168374 -0.041157246 -0.020426884 -0.024656365
-0.012941883 -0.030652938 0.027714219 0.022058628 -0.039608665 0.03762723 0.0030983004 -0.033326276
-0.014554266 -0.033983964 0.014143544 0.035382286 0.028700272 -0.004801806 -0.041198805 -0.03017405
-0.0247609 0.032431036 0.021831186 -0.0065204743 0.014868466 -0.044859778 -0.02102996 -0.028441314
-0.041535698 0.026307523 -0.037362058 0.038106944 -0.037136566 0.03731691 0.007138742 0.021727389
0.015584169 -0.013634767 0.007084823 -0.0024975024 -0.007537303 -0.0346612 -0.007004051 0.0026887208
-0.0025251047 -0.009606995 -0.034060158 -0.040825583 0.020165384 -0.002016405 0.02637891 -0.035532314
0.023052167 0.028288942 0.040610943 0.012070707 0.016436104 -0.034967788 0.035987806 0.02764502
00000000: dd30 413a cc2f 23bd 42b1 0e3d 4136 953c
00000010: 5c88 1cbd bbe6 263d 35a4 a93c 45c3 aebb
00000020: 7d34 cdbc 19bf 1dbb a81b 1abd 0207 bf3b
00000030: f4c3 013d 66a9 103c f915 6f3c c1a4 103c
00000040: e959 88bb 8923 7ebc 98d5 1cbd 610b 583c
00000050: 7892 043d ab73 9ebb a5a6 bd3c b007 76bc
00000060: 71f6 05bc 13e9 2d3d a758 a4bc 3635 eebc
00000070: 3af4 223d 8e54 053d 82c0 26bd 62a8 07bd
00000080: 8018 083d a7de 123b 15cd eb3c 8253 10bd
00000090: 20a0 93bc 25a1 01bd 08a2 ed3c 65d5 053d
000000a0: 6768 9e3c 5ead ce3c 681f 753c 9f49 ef3c
000000b0: b287 d4bc 38ea f03c 8457 2c3c b015 25bd
000000c0: 9ab4 083c 5c23 17bd 7683 07bd c861 54bc
000000d0: 4251 a6bc 8f27 07bd e857 b33c 3138 cc3b
000000e0: 9838 c137 1530 d2bc 1100 f03c 1f3e 16bd
000000f0: e460 d63c b52b 1bbd f992 1cbd 9455 a53a
00000100: fa95 0dbc e3c6 863b 3d65 fc3c 294d 153b
00000110: 5c34 e9bb 8094 28bd 4856 a7bc 25fc c9bc
00000120: 310a 54bc df1b fbbc ee08 e33c 4cb4 b43c
00000130: b23c 22bd 031f 1a3d db0c 4b3b 2281 08bd
00000140: 0475 6ebc c532 0bbd 53ba 673c 04ed 103d
00000150: d51c eb3c 7858 9dbb 14c0 28bd 922f f7bc
00000160: 5fd7 cabc 68d6 043d 51d7 b23c b4a9 d5bb
00000170: de9a 733c e3be 37bd 0647 acbc c2fd e8bc
00000180: 5621 2abd e082 d73c f508 19bd 0716 1c3d
00000190: 831c 18bd 9ed9 183d 1cec e93b a3fd b13c
000001a0: be54 7f3c 5c64 5fbc ce27 e83b 23ad 23bb
000001b0: 7bfb f6bb e7f8 0dbd 3d82 e5bb 4035 303b
000001c0: 3a7c 25bb a866 1dbc aa82 0bbd ba38 27bd
000001d0: e031 a53c aa25 04bb 9518 d83c 558a 11bd
000001e0: e6d7 bc3c 36be e73c a957 263d 37c4 453c
000001f0: 02a5 863c 623a 0fbd f367 133d cf77 e23c

weight f4 [128]
1.0151135 0.9734052 0.95516425 1.0224359 0.97022885 0.97883797 0.98145825 1.0667073
1.0067214 1.0235171 1.0136224 0.9786594 0.9964561 1.0372586 0.98413295 0.9645845
1.006931 0.94819736 0.9468374 1.0165365 0.9963894 1.0074502 0.9816932 0.9600268
0.9854838 0.9946224 1.059404 1.0328753 0.9860377 1.0113345 1.007705 0.9780618
0.96686673 0.98853207 1.0003126 1.0372075 0.9844382 0.9917123 0.97053516 1.063318
1.0218208 0.9389379 0.99166316 0.9630946 0.99301517 1.006147 1.0440686 0.9177179
0.94449246 0.99266976 0.9640784 1.0084497 1.05453 1.0028869 0.9265364 0.9648616
1.0267313 1.007094 0.98721755 1.0011003 0.9582901 0.94887745 1.0324103 0.9735539
0.9804011 1.0204266 0.9341655 1.0326915 0.97245765 1.0125712 0.98543227 1.0214218
1.0036712 0.99167424 0.98995614 1.0061893 0.99333656 0.9697816 1.0152526 1.008655
0.98780805 0.9900188 0.9713987 1.0052141 1.02841 0.94776714 0.9703662 1.0437953
1.0100436 1.0224047 0.96997106 0.99685556 0.9765944 1.006329 1.0191091 0.9680246
0.9599701 0.9797192 0.9988158 1.0322717 1.0578531 0.99932706 0.9449349 1.0694749
0.99052465 0.9675431 0.9897067 0.978205 1.0039968 0.98905784 1.0104817 0.98042226
0.9890326 0.9748018 0.9444837 1.0064021 1.0078772 0.9672993 0.9904828 1.0562581
0.9668569 0.98675984 0.9774676 1.0152628 0.9942657 1.0029945 0.99994653 0.9764739
00000000: 3def 813f 1531 793f a585 743f 2edf 823f
00000010: eb60 783f 2095 7a3f d940 7b3f dd89 883f
00000020: 3fdc 803f 9c02 833f 61be 813f 6c89 7a3f
00000030: bf17 7f3f e4c4 843f 23f0 7b3f 03ef 763f
00000040: 1de3 803f 10bd 723f f063 723f de1d 823f
00000050: 6013 7f3f 21f4 803f 3f50 7b3f 51c4 753f
00000060: ab48 7c3f 939f 7e3f 8d9a 873f 4235 843f
00000070: f76c 7c3f 6973 813f 7afc 803f 4262 7a3f
00000080: 9484 773f 7010 7d3f 3e0a 803f 37c3 843f
00000090: 2404 7c3f dbe0 7d3f fe74 783f ce1a 883f
000000a0: 06cb 823f 3c5e 703f a3dd 7d3f 5e8d 763f
000000b0: 3e36 7e3f 6dc9 803f 0aa4 853f 8fef 6a3f
000000c0: 42ca 713f 9b1f 7e3f d8cd 763f e114 813f
000000d0: d7fa 863f 995e 803f 7d31 6d3f 2b01 773f
000000e0: ee6b 833f 75e8 803f 4aba 7c3f 0e24 803f
000000f0: 8052 753f a2e9 723f 0526 843f d43a 793f
00000100: 91fb 7a3f 579d 823f 7825 6f3f 3c2f 843f
00000110: fcf2 783f ef9b 813f 4a45 7c3f f3bd 823f
00000120: 4c78 803f 5dde 7d3f c46d 7d3f d0ca 803f
00000130: 4e4b 7e3f 9b43 783f ccf3 813f 9b1b 813f
00000140: fde0 7c3f df71 7d3f 96ad 783f dbaa 803f
00000150: f0a2 833f dea0 723f eb69 783f 169b 853f
00000160: 1c49 813f 28de 823f 0650 783f ed31 7f3f
00000170: 1702 7a3f 64cf 803f 2b72 823f 76d0 773f
00000180: 9ac0 753f e1ce 7a3f 64b2 7f3f 7b21 843f
00000190: bb67 873f e6d3 7f3f 41e7 713f 8ee4 883f
000001a0: 0693 7d3f e8b0 773f 6b5d 7d3f a56b 7a3f
000001b0: f882 803f e532 7d3f 7757 813f f4fc 7a3f
000001c0: 3e31 7d3f 9c8c 793f afc9 713f c9d1 803f
000001d0: 1f02 813f eda0 773f 4890 7d3f 7733 873f
000001e0: ef83 773f 4b9c 7c3f 513b 7a3f 22f4 813f
000001f0: 3288 7e3f 2062 803f 7ffc 7f3f 32fa 793f

bias f4 [128]
-0.049303483 -0.011387492 -0.05046032 0.005672711 -0.038696647 -0.018771166 -0.03517924 -0.029503902
-0.025547449 -0.007843553 -0.014230393 -0.04314636 -0.06556613 -0.015114825 -0.00786129 -0.051485386
-0.058693882 -0.017024608 -0.053253468 0.006423646 -0.0033447759 -0.0048500127 -0.011816247 -0.0534734
-0.10896428 -0.08932947 0.055292692 -0.045691796 -0.020683158 0.017001875 -0.049535934 -0.049658384
-0.025487326 -0.008050972 -0.021794166 -0.016844997 -0.020860301 -0.046838034 -0.02899988 -0.023140904
0.0036715723 -0.073000304 -0.0035179618 -0.022773275 -0.011141549 -0.013094436 -0.009284257 -0.083196305
-0.0606431 -0.023032935 -0.045263927 -0.0033830053 -0.001451774 0.00026274318 -0.06455224 -0.0478722
-0.08010449 -0.08362193 -0.005664479 -0.046339024 -0.0521634 -0.054605734 -0.021901244 -0.094974995
-0.015989026 0.009931726 -0.04121563 0.027505556 -0.018599825 0.0025099688 -0.03289066 -0.022050966
-0.008280702 0.02269193 -0.0151903285 -0.07246423 -0.04298013 -0.018192062 0.0053904564 0.0039542136
-0.0130229825 -0.016065992 -0.011410204 0.0027722113 -0.054583535 -0.023261294 -0.045877296 -0.001507787
-0.0035830666 0.0003070254 -0.026329327 -0.0639581 -0.038914602 -0.0003896663 -0.017388068 -0.08835313
-0.025547601 -0.01863024 -0.06608015 0.023954907 -0.019579573 -0.03895803 -0.09214499 -0.026684947
-0.0027289914 -0.048445996 -0.013871539 -0.018822847 -0.042882435 -0.029089846 -0.01783855 -0.030807171
-0.039554134 -0.018222895 -0.04312551 0.0048649074 -0.030669894 -0.050050408 -0.028300542 -0.014735889
-0.024339212 -0.0013171695 -0.051540647 -0.028307395 -0.074197344 -0.005036789 -0.009182346 -0.028703494
00000000: 73f2 49bd 9a92 3abc 7baf 4ebd 26e2 b93b
00000010: 6080 1ebd fdc5 99bc 1b18 10bd 2bb2 f1bc
00000020: e248 d1bc 3f82 00bc 9826 69bc 3dba 30bd
00000030: 8947 86bd 2ca4 77bc a4cc 00bc 57e2 52bd
00000040: ff68 70bd 3177 8bbc 4f20 5abd 737d d23b
00000050: 0734 5bbb dbec 9ebb ef98 41bc ed06 5bbd
00000060: aa28 dfbd 5ff2 b6bd 977a 623d 5227 3bbd
00000070: ba6f a9bc 8447 8b3c 31e6 4abd 9766 4bbd
00000080: ccca d0bc 39e8 03bc ae89 b2bc 85fe 89bc
00000090: 39e3 aabc 3dd9 3fbd 2891 edbc fe91 bdbc
000000a0: c39e 703b 2f81 95bd 9b8d 66bb 058f babc
000000b0: 0b8b 36bc 0c8a 56bc ff1c 18bc d362 aabd
000000c0: e664 78bd 91af bcbc ab66 39bd 69b5 5dbb
000000d0: 7449 beba cbc0 8939 f733 84bd a415 44bd
000000e0: d30d a4bd f941 abbd 189d b9bb fdcd 3dbd
000000f0: 4aa9 55bd 43aa 5fbd 3d6a b3bc 4082 c2bd
00000100: 6bfb 82bc aeb8 223c b8d1 28bd 5553 e13c
00000110: a95e 98bc 4a7e 243b 5bb8 06bd 3aa4 b4bc
00000120: c8ab 07bc 6de4 b93c dbe0 78bc 2068 94bd
00000130: ef0b 30bd 8507 95bc 6da2 b03b 5992 813b
00000140: 595e 55bc d49c 83bc ddf1 3abc fdad 353b
00000150: fc92 5fbd 788e bebc d5e9 3bbd f0a0 c5ba
00000160: e2d1 6abb 40f8 a039 9ab0 d7bc 77fc 82bd
00000170: eb64 1fbd 204c ccb9 6c71 8ebc 7cf2 b4bd
00000180: 3449 d1bc 729e 98bc 0855 87bd 153d c43c
00000190: 5765 a0bc 7592 1fbd 83b6 bcbd 649a dabc
000001a0: e1d8 32bb 4f6f 46bd 7445 63bc 5f32 9abc
000001b0: 7ea5 2fbd d44d eebc 2722 92bc 525f fcbc
000001c0: 8403 22bd 2e48 95bc 60a4 30bd cd69 9f3b
000001d0: 6e3f fbbc a801 4dbd 8ad6 e7bc cc6e 71bc
000001e0: 0763 c7bc e0a4 acba 491c 53bd e9e4 e7bc
000001f0: c7f4 97bd a60b a5bb 8d71 16bc 9723 ebbc

running_mean f4 [128]
-1.2145318 1.311703 -1.5483861 0.1533564 -0.8891338 -0.15131591 0.00483091 0.44347796
-0.43413273 -0.366244 0.12726456 -1.64473 0.3435487 -0.5677446 0.3302049 -0.470423
-0.3393978 -0.9685048 -1.7279037 -0.07877056 0.28457126 0.51912636 0.5844609 -1.8859594
-1.0660297 -0.88136446 -0.540974 -0.8047625 -1.473949 0.14711185 -0.41079646 0.23020175
-1.7034109 1.1565949 -0.22835448 0.6695045 -0.15066132 0.49486992 0.16608922 0.86956036
0.8288344 -0.88637966 -1.579857 -2.0086854 -0.062123593 -1.276935 0.7414635 2.6444788
-0.5522184 -0.85128164 -0.9049502 -0.2036462 0.70672005 0.012596404 -1.1358644 -0.352522
-0.2282918 -0.50444674 -0.44341162 -0.1854143 -1.0155332 -1.1887051 -0.51108027 -0.27684024
-1.9072638 0.46164587 -1.5095612 0.86874384 -0.12125036 0.44310525 0.5139018 0.39609534
1.3285453 0.5899426 0.7037651 0.18854247 -0.60363454 0.65846974 1.0228026 -0.30176756
-1.6143228 -0.34268925 -1.2859056 0.7721622 0.76687086 -0.47054157 1.3358581 0.81644547
-0.55600816 -0.2924047 -0.68258184 -0.6462599 -0.9359577 -0.4310701 -0.27266696 0.31060237
-1.3478367 0.49569005 -0.16266803 0.43422264 1.1734958 -0.026925717 -0.6695744 0.9528519
0.82387495 -0.3153978 -0.25336322 -1.042583 -0.39406517 -0.1948921 0.39713442 1.5692691
1.1849542 -0.3461463 -1.110966 -0.21969524 0.74516827 -0.7325905 1.5426011 0.5794377
-1.1791596 0.91347456 0.55347186 -0.09104971 -1.3198738 1.1348338 0.3684768 -0.11582543
00000000: c775 9bbf e2e5 a73f 8431 c6bf 7609 1d3e
00000010: 469e 63bf 8ff2 1abe 9c4c 9e3b 8b0f e33e
00000020: a546 debe 5584 bbbe a451 023e 8386 d2bf
00000030: 9de5 af3e b657 11bf 9e10 a93e 49db f0be
00000040: 8cc5 adbe eeef 77bf f32b ddbf 7652 a1bd
00000050: 53b3 913e 77e5 043f 3b9f 153f 1e67 f1bf
00000060: a973 88bf 1aa1 61bf 467d 0abf ea04 4ebf
00000070: 5caa bcbf 7da4 163e ea53 d2be 02ba 6b3e
00000080: 5e09 dabf 4d0b 943f c2d5 69be a664 2b3f
00000090: f646 1abe 975f fd3e 4b13 2a3e 829b 5e3f
000000a0: 7e2e 543f c7e9 62bf c138 cabf 4d8e 00c0
000000b0: 4f75 7ebd 9b72 a3bf 8dd0 3d3f 243f 2940
000000c0: 2f5e 0dbf 98ed 59bf d1aa 67bf a188 50be
000000d0: 9beb 343f 2661 4e3c 0164 91bf c37d b4be
000000e0: 53c5 69be 6c23 01bf d906 e3be 3fdd 3dbe
000000f0: fefc 81bf 7d27 98bf 28d6 02bf 01be 8dbe
00000100: 3821 f4bf d95c ec3e 4d39 c1bf ff65 5e3f
00000110: 1c52 f8bd b1de e23e 128f 033f 02cd ca3e
00000120: c60d aa3f 7a06 173f f329 343f 4711 413e
00000130: cb87 1abf 7991 283f 32eb 823f 4781 9abe
00000140: 21a2 cebf f774 afbe 8e98 a4bf 6cac 453f
00000150: a651 443f d3ea f0be 66fd aa3f 9202 513f
00000160: 8d56 0ebf 12b6 95be afbd 2ebf 4a71 25bf
00000170: ec9a 6fbf 38b5 dcbe 019b 8bbe 4607 9f3e
00000180: ea85 acbf 16cb fd3e 7392 26be 6e52 de3e
00000190: 1c35 963f 5293 dcbc 3a69 2bbf 1aee 733f
000001a0: 78e9 523f d27b a1be d3b8 81be 5c73 85bf
000001b0: e9c2 c9be cb91 47be 3455 cb3e cfdd c83f
000001c0: 94ac 973f 163a b1be 2234 8ebf caf7 60be
000001d0: 59c3 3e3f 0d8b 3bbf f473 c53f 0756 143f
000001e0: b4ee 96bf 78d9 693f 55b0 0d3f 4578 babd
000001f0: a0f1 a8bf 3c42 913f fea8 bc3e e235 edbd

running_var f4 [128]
6.123976 7.778036 13.434749 1.6528805 4.4102817 1.1160505 1.5196271 1.5955169
3.8658068 1.0235196 1.9807775 6.414118 2.3703716 2.2364652 2.264299 3.3853242
2.5066283 13.214315 13.659609 1.5797657 2.332078 1.412741 3.667412 10.070128
2.0320883 1.7727865 1.5346681 3.1091852 3.1951735 3.005931 2.1655374 1.5353435
8.676559 5.269304 3.0454912 2.1526234 4.17292 4.4864798 1.755155 1.5418836
3.1684573 8.018452 4.112695 5.8016667 1.3559439 3.1219704 0.9671855 10.383519
5.601851 1.538665 2.550412 2.4049985 1.7289578 2.1610374 6.923168 2.7889402
1.6040294 1.4561478 1.9382994 1.359968 4.21535 10.396684 1.3776275 2.57594
9.095361 1.7707503 12.46535 1.8103912 1.8655678 1.9654781 2.124451 2.0299451
6.3205676 2.8885038 2.1401172 3.289467 1.7694612 4.7675986 1.9825598 2.6999357
7.3769755 1.7848105 9.146334 2.3735757 1.3428617 1.6632404 3.484557 1.6510122
4.6545405 1.1947681 3.5825984 1.9338056 5.9625616 3.1460705 1.2980647 1.645778
8.521346 3.2413566 1.6912818 1.6056966 1.6564415 1.5944781 1.1542861 1.7477901
2.9234042 1.2263846 1.075606 4.4193015 1.600477 3.2868183 1.1630574 2.7459762
6.1454573 4.5175166 17.077106 1.440099 1.4468861 1.5339512 4.195134 1.5674952
4.295936 3.5432684 3.1986046 3.0794117 3.6876035 1.8752105 2.4506202 8.103527
00000000: 9df7 c340 ace5 f840 bbf4 5641 9791 d33f
00000010: 0721 8d40 beda 8e3f 2483 c23f e639 cc3f
00000020: 6169 7740 b102 833f 1e8a fd3f 7440 cd40
00000030: 2bb4 1740 3f22 0f40 46ea 1040 27a9 5840
00000040: 996c 2040 d66d 5341 c28d 5a41 c335 ca3f
00000050: c440 1540 b2d4 b43f e1b6 6a40 3f1f 2141
00000060: bc0d 0240 abea e23f 0170 c43f e4fc 4640
00000070: b97d 4c40 2c61 4040 2a98 0a40 2386 c43f
00000080: 30d3 0a41 239e a840 54e9 4240 95c4 0940
00000090: 9088 8540 3e91 8f40 eba8 e03f 715c c53f
000000a0: 01c8 4a40 944b 0041 339b 8340 41a7 b940
000000b0: 928f ad3f 5dce 4740 7899 773f e522 2641
000000c0: 5d42 b340 faf2 c43f f339 2340 7feb 1940
000000d0: 7d4e dd3f 704e 0a40 988a dd40 ff7d 3240
000000e0: d650 cd3f 0d63 ba3f 321a f83f 6e13 ae3f
000000f0: 26e4 8640 d158 2641 1956 b03f 33dc 2440
00000100: 9986 1141 f2a7 e23f 1372 4741 e6ba e73f
00000110: edca ee3f c994 fb3f 01f7 0740 9fea 0140
00000120: 1742 ca40 3fdd 3840 aef7 0840 a186 5240
00000130: b47d e23f 2b90 9840 85c4 fd3f bfcb 2c40
00000140: 2f10 ec40 ac74 e43f 6257 1241 aae8 1740
00000150: e4e2 ab3f 10e5 d43f fb02 5f40 5e54 d33f
00000160: fff1 9440 29ee 983f 4b49 6540 f186 f73f
00000170: 4ecd be40 3859 4940 fc26 a63f daa8 d23f
00000180: 6f57 0841 6372 4f40 ec7b d83f 7787 cd3f
00000190: 4606 d43f dc17 cc3f a6bf 933f 96b7 df3f
000001a0: 0e19 3b40 2cfa 9c3f 75ad 893f eb6a 8d40
000001b0: 6edc cc3f 3b5b 5240 11df 943f 13be 2f40
000001c0: 96a7 c440 7f8f 9040 ea9d 8841 2a55 b83f
000001d0: 9033 b93f 8358 c43f 8a3e 8640 afa3 c83f
000001e0: 4f78 8940 e9c4 6240 f0b5 4c40 1515 4540
000001f0: b201 6c40 e606 f03f f6d6 1c40 0ca8 0141

quantized_dynamic f4 [192]
0.1123797 0.06654959 0.06243304 0.08472125 0.10258183 0.12265028 0.042551894 -0.00415471
0.08403592 -0.08712415 0.11609913 0.015966026 0.09997025 0.13824475 -0.113089316 0.060039885
0.14499635 -0.016998172 -0.025735598 0.018443586 0.0897724 0.08238811 0.09821503 0.0015595587
-0.047939587 0.069612816 -0.08138765 -0.05407859 -0.027729446 0.0848552 -0.02236424 -0.07501763
-0.083633795 0.0813228 0.061896868 0.07887591 -0.04141334 0.106394544 0.08818756 0.082627684
-0.07995232 -0.08770637 -0.12741911 0.045442358 -0.018540058 -0.053132955 0.12397624 0.0850324
-0.12546054 -0.05190131 -0.06402506 0.106035136 0.080361694 0.08793955 -0.063929126 0.053730447
0.03550229 0.02197067 -0.101652145 0.10435621 -0.03193862 -0.026033133 0.047685646 0.07460262
-0.114448026 -0.091416754 0.0004672539 -0.0785959 -0.092948616 -0.03598131 -0.1069533 -0.10513278
-0.07172479 0.1093948 -0.07962906 -0.052831497 -0.08232058 0.10152551 0.13581368 0.1039762
-0.017617587 0.047855347 -0.0217404 0.08350857 0.13234663 -0.035496306 -0.072280414 -0.058239017
-0.022986582 0.030227145 0.12501489 -0.10997433 -0.0024338476 0.066370085 0.035407364 -0.12512118
-0.053695556 -0.12768467 0.007165042 -0.10391756 0.008533822 -0.11357011 0.038297668 -0.10086647
0.030410422 0.029285843 -0.121506035 -0.096405685 -0.004422822 0.046086766 -0.07215418 -0.10295122
-0.04473679 0.06221195 0.045916427 -0.061705768 0.13335975 0.06808551 0.093173616 0.0802345
-0.037590746 0.0510886 -0.02397559 0.07828149 -0.0047176494 0.047862977 0.00906643 -0.122250184
-0.110151015 -0.01817223 -0.0040259105 0.021756975 -0.008481674 -0.08810479 -0.004495174 -0.035222687
0.061530992 -0.034741625 0.08318116 0.08219767 0.014908046 -0.051284738 -0.11348238 -0.11416631
-0.12195992 -0.09969229 0.008634741 0.11288195 0.07213402 0.042797424 -0.085178375 -0.006949397
-0.013992428 0.05954316 0.029769776 0.030918201 0.07956341 -0.12522614 -0.052176088 0.052144613
-0.13023053 -0.10441457 0.104824886 0.009456078 0.09271636 0.04867139 -0.09282055 0.085060745
0.027320117 -0.10705701 0.07466776 -0.10449787 -0.05351812 -0.10686821 -0.04610411 0.09845536
0.08589424 0.05946177 -0.058455184 -0.026102802 0.027757619 0.057006348 0.10121344 -0.012848692
0.0041254633 0.03784249 0.05086477 -0.01063259 -0.030975709 -0.061526954 0.081641704 0.06070284
00000000: 5427 e63d 274b 883d cab9 7f3d 5682 ad3d
00000010: 6c16 d23d 1230 fb3d e54a 2e3d 3c24 88bb
00000020: 061b ac3d 256e b2bd 61c5 ed3d 2fcb 823c
00000030: 34bd cc3d 0890 0d3e 5f9b e7bd 62ec 753d
00000040: ec79 143e c03f 8bbc 76d3 d2bc 0117 973c
00000050: 98da b73d 19bb a83d f624 c93d 1b6a cc3a
00000060: 4d5c 44bd 2a91 8e3d 91ae a6bd 8381 5dbd
00000070: dd28 e3bc 90c8 ad3d 3635 b7bc d8a2 99bd
00000080: 3248 abbd 918c a63d 9287 7d3d b189 a13d
00000090: 09a1 29bd 62e5 d93d ae9b b43d b438 a93d
000000a0: 0bbe a3bd 669f b3bd 287a 02be c421 3a3d
000000b0: 52e1 97bc f1a1 59bd 41e7 fd3d 7825 ae3d
000000c0: ba78 00be 7896 54bd 921f 83bd f328 d93d
000000d0: ac94 a43d a719 b43d 46ed 82bd 7514 5c3d
000000e0: d96a 113d d6fb b33c 002f d0bd b5b8 d53d
000000f0: 12d2 02bd 7043 d5bc 0652 433d 42c9 983d
00000100: ba63 eabd b538 bbbd c2f9 f439 e3f6 a0bd
00000110: d85b bebd 2361 13bd 550a dbbd db4f d7bd
00000120: 72e4 92bd 620a e03d 9014 a3bd d765 58bd
00000130: b197 a8bd 9bec cf3d be12 0b3e 79f1 d43d
00000140: c252 90bc f803 443d ec18 b2bc 8b06 ab3d
00000150: e085 073e 9364 11bd c107 94bd 098c 6ebd
00000160: 5b4e bcbc eb9e f73c e703 003e 393a e1bd
00000170: 3081 1fbb 0aed 873d 5007 113d c41f 00be
00000180: dfef 5bbd c5bf 02be bbc8 ea3b bbd2 d4bd
00000190: 72d1 0b3c 7297 e8bd 04de 1c3d 1493 cebd
000001a0: 471f f93c dde8 ef3c 28d8 f8bd 5870 c5bd
000001b0: 52ed 90bb 7ac5 3c3d 92c5 93bd 17d8 d2bd
000001c0: ed3d 37bd f5d1 7e3d dd12 3c3d 30bf 7cbd
000001d0: 758f 083e 6a70 8b3d cfd1 be3d fc51 a43d
000001e0: c1f8 19bd 4842 513d 7568 c4bc 0c52 a03d
000001f0: 8396 9abb f80b 443d 5d8b 143c 4e5e fabd
00000200: db96 e1bd eedd 94bc c9eb 83bb af3b b23c
00000210: b8f6 0abc 4970 b4bd 414c 93bb aa45 10bd
00000220: ec07 7c3d 3c4d 0ebd e25a aa3d 4157 a83d
00000230: e140 743c f20f 52bd 7369 e8bd 07d0 e9bd
00000240: 1fc6 f9bd 792b ccbd bb78 0d3c a72e e73d
00000250: 00bb 933d 5a4c 2f3d 0072 aebd c4b7 e3bb
00000260: 7f40 65bc 87e3 733d bfdf f33c 2b48 fd3c
00000270: 24f2 a23d 483b 00be 98b6 55bd 9795 553d
00000280: 275b 05be 4ed7 d5bd 6eae d63d aaed 1a3c
00000290: 13e2 bd3d a75b 473d b318 bebd 5434 ae3d
000002a0: 70ce df3c b540 dbbd 69eb 983d fb02 d6bd
000002b0: d135 5bbd b8dd dabd aad7 3cbd f7a2 c93d
000002c0: 52e9 af3d 2f8e 733d b46e 6fbd 8bd5 d5bc
000002d0: f263 e33c 7d7f 693d fe48 cf3d 5283 52bc
000002e0: e52e 873b ba00 1b3d 9457 503d 5134 2ebc
000002f0: c5c0 fdbc b003 7cbd c433 a73d 8ba3 783d

quantized_dynamic f4 [192]
0.16014783 0.080656864 0.007518433 -0.019916035 0.08500214 -0.104391724 0.14536071 0.09280579
0.088113956 -0.0047936845 -0.0037209296 0.058886126 0.106003314 0.047811933 -0.08095071 -0.1182235
-0.08977602 -0.03387244 0.0031658534 -0.08211736 0.07854828 -0.095005475 0.08689043 -0.1291252
0.10226327 0.09492758 -0.03744218 -0.008533024 0.087609634 -0.0968454 -0.035587147 0.007618797
0.026054453 0.030493058 -0.04215906 -0.05835709 0.0053122123 0.041802637 0.04472469 -0.00853458
-0.006267854 -0.06683996 -0.071222775 0.053515412 -0.040015187 -0.12190045 0.09610475 0.030777803
0.046865005 0.06556393 0.07572749 0.039570622 0.028091108 0.077742234 -0.04223674 0.090141125
-0.03528659 0.024174523 0.011141661 0.12665719 -0.03184808 -0.12225133 0.07461223 -0.06619113
0.06554687 -0.09541582 0.078086354 0.042062733 0.016784182 -0.08804779 0.048082333 -0.008655996
0.009803348 0.0018786493 0.06690888 -0.1076703 0.026450334 -0.04811537 -0.083064064 -0.10297463
-0.13148496 0.045337602 -0.10494985 -0.13672273 -0.11277643 0.0254636 0.06803614 -0.040067006
0.061121497 0.119194515 0.050730646 -0.036511164 0.085023604 0.07867914 0.032852773 0.09096606
0.02198995 0.054062538 0.09543359 -0.04550787 -0.13464989 0.033809043 -0.035889912 -0.09649816
-0.103923574 0.124832794 0.043483432 -0.119526036 0.020889215 0.13594711 0.0670619 0.095108114
0.014022682 -0.016660204 -0.00384663 0.08889922 0.024171824 -0.04338316 -0.040611763 -0.082515806
-0.04241887 -0.04201481 0.057922065 -0.07614797 0.010887822 -0.11327946 -0.09372631 0.028268475
0.030651676 -0.09795054 -0.018869692 -0.011636167 -0.115759246 0.06042742 -0.064192966 0.13699088
-0.022051748 -0.088201925 -0.07713247 -0.098399 -0.007023278 0.077348754 0.007668692 0.019893734
0.03453727 -0.022016536 -0.095944576 0.041098014 0.071466655 -0.053160008 -0.06439571 -0.05471258
0.060627036 -0.054275677 -0.047315605 0.07123158 -0.12443439 -0.14277518 -0.11964193 -0.055861562
-0.085901745 -0.12281321 0.10744601 0.004958367 -0.029778358 -0.12000352 -0.06900405 -0.08983091
0.016467454 -0.0030657533 0.09927569 0.037106536 0.03237743 -0.0624553 0.0083375 -0.12629803
0.069315225 -0.023157416 0.10071012 -0.043233 0.024983576 -0.037878133 0.004977917 -0.04860072
-0.052249312 -0.13006213 -0.02952805 -0.073896 0.10889244 0.084512144 -0.06270538 0.029061602
00000000: cbfd 233e 6d2f a53d 305d f63b f426 a3bc
00000010: 9a15 ae3d 54cb d5bd 70d9 143e f610 be3d
00000020: 1775 b43d 5714 9dbb d7da 73bb 9432 713d
00000030: 4418 d93d 72d6 433d 7cc9 a5bd 2a1f f2bd
00000040: 7ddc b7bd d4bd 0abd 357a 4f3b 252d a8bd
00000050: ecdd a03d 3b92 c2bd 9cf3 b13d 6539 04be
00000060: 686f d13d 6469 c23d f95c 19bd 19ce 0bbc
00000070: ae6c b33d e256 c6bd d4c3 11bd 1aa7 f93b
00000080: 2670 d53c 94cc f93c faae 2cbd d807 6fbd
00000090: 1112 ae3b 3e39 2b3d 3d31 373d 9fd4 0bbc
000000a0: 9262 cdbb 64e3 88bd 3fdd 91bd fa32 5b3d
000000b0: f7e6 23bd f1a6 f9bd 91d2 c43d bb21 fc3c
000000c0: 85f5 3f3d 6246 863d 0417 9b3d ce14 223d
000000d0: 531f e63c 5237 9f3d 6f00 2dbd e99b b83d
000000e0: ac88 10bd a609 c63c 838b 363c 6cb2 013e
000000f0: 2273 02bd e85e fabd 4cce 983d 378f 87bd
00000100: 703d 863d 5f69 c3bd bdeb 9f3d f949 2c3d
00000110: fb7e 893c 6652 b4bd fbf1 443d e1d1 0dbc
00000120: 399e 203c 033d f63a 8607 893d 3f82 dcbd
00000130: 5fae d83c 9f14 45bd 7e1d aabd 5de4 d2bd
00000140: fea3 06be ecb3 393d f2ef d6bd 0b01 0cbe
00000150: 54f7 e6bd 0a99 d03c 8856 8b3d 4d1d 24bd
00000160: 895a 7a3d 411c f43d f0ca 4f3d bb8c 15bd
00000170: db20 ae3d 8722 a13d a190 063d 6a4c ba3d
00000180: 4524 b43c ae70 5d3d b072 c33d 7666 3abd
00000190: a9e1 09be 5a7b 0a3d 4d01 13bd d4a0 c5bd
000001a0: e2d5 d4bd 56a8 ff3d af1b 323d 11ca f4bd
000001b0: dc1f ab3c b835 0b3e c057 893d 0bc8 c23d
000001c0: 64bf 653c fb7a 88bc be17 7cbb cb10 b63d
000001d0: fd03 c63c 8ab2 31bd 8558 26bd 0cfe a8bd
000001e0: 69bf 2dbd b917 2cbd b03f 6d3d 78f3 9bbd
000001f0: d662 323c 10ff e7bd 94f3 bfbd 4a93 e73c
00000200: 3919 fb3c 4b9a c8bd 9d94 9abc 9fa5 3ebc
00000210: 2f13 edbd be82 773d 9a77 83bd 5647 0c3e
00000220: dea5 b4bc 36a3 b4bd a1f7 9dbd 6a85 c9bd
00000230: 8723 e6bb 0669 9e3d a749 fb3b 2ff8 a23c
00000240: f476 0d3d 065c b4bc 977e c4bd 6456 283d
00000250: 1c5d 923d 4fbe 59bd e6e1 83bd 4c1a 60bd
00000260: 0e54 783d 2c50 5ebd 02ce 41bd dde1 913d
00000270: 75d7 febd a833 12be d406 f5bd 18cf 64bd
00000280: 41ed afbd 7e85 fbbd a70c dc3d cc79 a23b
00000290: bef1 f3bc 68c4 f5bd ff51 8dbd 45f9 b7bd
000002a0: c1e6 863c ceea 48bb 0e51 cb3d 06fd 173d
000002b0: 329e 043d 21d1 7fbd 029a 083c 4554 01be
000002c0: 24f5 8d3d 9fb4 bdbc 1b41 ce3d 1615 31bd
000002d0: 5baa cc3c 1a26 1bbd cb1d a33b 8c11 47bd
000002e0: 6003 56bd 022f 05be cfe4 f1bc c956 97bd
000002f0: 0003 df3d b414 ad3d ae6b 80bd 9912 ee3c

quantized_dynamic f4 [192]
0.040400535 0.06376271 -0.092328265 0.011891942 0.037676167 0.0067418963 -0.0027607896 0.14812198
0.11685866 0.061720274 0.15546207 0.11403903 -0.026208572 0.10674209 -0.16196255 -0.007955913
-0.10181292 -0.051512044 -0.023191644 -0.06373644 -0.013443456 -0.09640376 0.07165824 0.023878168
0.11510128 -0.013675946 0.06436266 0.005339047 -0.07343786 0.016960327 0.11079635 0.12254127
0.05465135 -0.05337833 -0.039371498 0.11768925 0.08669399 0.07784533 -0.033858098 0.13151388
-0.09550341 -0.053017527 -0.02698181 0.099684544 -0.014151211 -0.10918264 0.05436375 -0.12951785
0.08382268 0.027336933 -0.10906185 0.015816776 -0.08299112 0.09261728 0.021624476 0.08240272
-0.045398775 -0.0840145 0.0140851475 -0.08756455 0.0034741482 0.09423575 -0.044122938 0.041368134
0.019403523 0.04490328 -0.07207738 0.0930962 -0.09243353 0.099678375 -0.116449416 -0.13120154
0.12476277 0.028143054 0.035222325 0.022458047 -0.044537693 -0.057290066 -0.10788489 -0.031896144
0.056347426 -0.004863878 -0.081285805 -0.07822115 -0.10541796 0.044903398 0.018985365 -0.11343351
-0.06822218 0.026064808 0.087936625 -0.05603175 0.0011635765 -0.0067595006 -0.0382592 -0.030031588
0.0552182 -0.010088564 0.107575834 -0.090841964 -0.07865027 0.12617333 -0.11894124 -0.009946613
-0.069449894 -0.021516487 -0.015285733 0.14126986 -0.077043965 -0.053535182 0.059352167 -0.093483135
-0.01962871 -0.03326899 -0.06490635 -0.041119684 0.1193823 -0.0017502343 0.044756245 0.041565415
-0.033470582 -0.10178116 -0.018733583 -0.085118085 0.06460751 0.07789419 -0.02499165 0.05979573
-0.03106266 0.043654945 -0.006244545 -0.11107757 -0.007997071 0.011270673 -0.10237937 -0.010280343
0.02659904 0.099793054 0.037563585 -0.093155384 -0.068545274 -0.07567896 0.061969146 0.107466355
-0.13320923 0.018339671 0.060604963 -0.07751473 0.15081832 -0.042381354 0.103895046 0.09776126
-0.08445403 0.052092638 0.06180423 0.092570625 0.04492036 -0.094593495 0.03967052 -0.039144214
0.091694444 -0.046419796 -0.037875123 0.13526605 -0.0707842 0.09783904 -0.09102896 -0.06358606
-0.01819774 0.027180828 0.038111717 -0.05472578 -0.06437851 -0.078117244 0.037901923 -0.03656966
-0.08719993 -0.04290181 -0.048925906 0.0025553897 0.063722886 0.010996131 0.07027551 0.0729938
0.06800491 -0.0016307622 0.1327557 -0.09131276 -0.03729081 0.057769302 -0.01239284 0.030190239
00000000: 087b 253d 0696 823d 9a16 bdbd 6bd6 423c
00000010: 5352 1a3d 20eb dc3b 5dee 34bb 4aad 173e
00000020: 9853 ef3d 66ce 7c3d 7331 1f3e 4c8d e93d
00000030: 5cb3 d6bc 999b da3d 83d9 25be 8559 02bc
00000040: 4b83 d0bd 4bfe 52bd 67fc bdbc 4088 82bd
00000050: f141 5cbc 566f c5bd 8ec1 923d 269c c33c
00000060: 38ba eb3d 1311 60bc 92d0 833d 2cf3 ae3b
00000070: 9766 96bd 62f0 8a3c 32e9 e23d ebf6 fa3d
00000080: 18da 5f3d 3ca3 5abd 0244 21bd 1007 f13d
00000090: 9e8c b13d 5f6d 9f3d caae 0abd 93ab 063e
000000a0: 4b97 c3bd e828 59bd f508 ddbc 6927 cc3d
000000b0: 7bda 67bc 269b dfbd 86ac 5e3d 54a0 04be
000000c0: 3aab ab3d b4f1 df3c d25b dfbd 2f92 813c
000000d0: 40f7 a9bd 21ae bd3d d025 b13c c2c2 a83d
000000e0: 11f4 39bd cb0f acbd 64c5 663c 0b55 b3bd
000000f0: 89ae 633b acfe c03d 41ba 34bd a271 293d
00000100: 23f4 9e3c 80ec 373d 4e9d 93bd 38a9 be3d
00000110: ca4d bdbd 2d24 cc3d 087d eebd b259 06be
00000120: a083 ff3d 438c e63c 4945 103d f0f9 b73c
00000130: 286d 36bd fda8 6abd c1f2 dcbd 88a5 02bd
00000140: 8fcc 663d 2a61 9fbb 2c79 a6bd 6932 a0bd
00000150: 5fe5 d7bd a0ec 373d 3287 9b3c d44f e8bd
00000160: 12b8 8bbd dd85 d53c 1e18 b43d 8c81 65bd
00000170: 2683 983a cd7e ddbb aeb5 1cbd ce04 f6bc
00000180: 7b2c 623d 814a 25bc b850 dc3d 5a0b babd
00000190: 6513 a1bd 9533 013e 7797 f3bd 1ef7 22bc
000001a0: bf3b 8ebd 5843 b0bc 0371 7abc 0ca9 103e
000001b0: 3ac9 9dbd b547 5bbd 421b 733d 1674 bfbd
000001c0: 63cc a0bc 1145 08bd 9fed 84bd 1d6d 28bd
000001d0: b57e f43d 1e68 e5ba 5352 373d 7f40 2a3d
000001e0: 7318 09bd a472 d0bd 2c77 99bc 6452 aebd
000001f0: f150 843d fd86 9f3d 4abb ccbc 5eec 743d
00000200: 1f77 febc 87cf 323d 0a9f ccbb a37c e3bd
00000210: 2606 03bc a1a8 383c 46ac d1bd e26e 28bc
00000220: 3be6 d93c 4d60 cc3d 46dc 193d 40c8 bebd
00000230: 7761 8cbd 92fd 9abd 5cd3 7d3d 5217 dc3d
00000240: 0068 08be 143d 963c e93c 783d 0bc0 9ebd
00000250: 1e70 1a3e 1298 2dbd edc6 d43d 0e37 c83d
00000260: 3cf6 acbd 175f 553d 6f26 7d3d ab95 bd3d
00000270: 69fe 373d 3cba c1bd 8e7d 223d af55 20bd
00000280: 4cca bb3d af22 3ebd f222 1bbd 2f83 0a3e
00000290: 4ff7 90bd d65f c83d 646d babd 6939 82bd
000002a0: 6d13 95bc 54aa de3c 081b 1c3d 2428 60bd
000002b0: e1d8 83bd effb 9fbd 0c3f 1b3d 11ca 15bd
000002c0: e095 b2bd cfb9 2fbd 8866 48bd 5378 273b
000002d0: 2581 823d 1e29 343c 9bec 8f3d c67d 953d
000002e0: 2946 8b3d 4dbf d5ba 1cf1 073e 2f02 bbbd
000002f0: 40be 18bd 819f 6c3d 570b 4bbc 8551 f73c
