swallow_detector_gru_mobile_quantized.pt (torch, 577518 bytes, 23 tensors)

weight f4 [32, 1, 3, 3]
0	0x3e9e3d54	0.30906165
1	0x3e7cc1ce	0.24683306
2	0xbc3a9ef1	-0.011390434
3	0x3ea9b6be	0.33147234
4	0xbdbade17	-0.091243915
5	0x3e1752cc	0.14777678
6	0xbd8e4ccb	-0.06948241
7	0x3e06a095	0.13147195
8	0x3eaf43a1	0.34231284
9	0xbe4b4b1c	-0.1985287
10	0x3ec9ac40	0.3938923
11	0x3d811d39	0.06304402
12	0x3e7f5291	0.2493384
13	0x3dd64d7b	0.10463997
14	0x3e1234cc	0.14277953
15	0xbce5c4ae	-0.028047886
16	0x3ea7592f	0.3268523
17	0x3d80c941	0.06288386
18	0xbde1518c	-0.11001882
19	0x3d3e69c6	0.046487592
20	0xbe8c50fe	-0.27405542
21	0x3ac6aa83	0.0015157018
22	0xbe2c8d31	-0.16850735
23	0x3de5f4ba	0.112283185
24	0xbe61a84c	-0.22036856
25	0xbe33e9ad	-0.17569609
26	0xbe38e2aa	-0.18055215
27	0xbe102bb5	-0.14079173
28	0x3d306223	0.04306234
29	0xbe8a4f2c	-0.27013528
30	0x3eb1f7ed	0.34759465
31	0xbe724538	-0.23659217
32	0x3e98a456	0.29812878
33	0x3e0a59bc	0.13510793
34	0xbdf89755	-0.12138239
35	0x3e5e3019	0.21698035
36	0x3d51d578	0.05122897
37	0x3eb1c45e	0.3472013
38	0xbcc890dc	-0.024483137
39	0xbd988582	-0.074473396
40	0x3e7b4593	0.24538259
41	0xbe035759	-0.12826289
42	0x3de7600e	0.11297618
43	0x3ec0b908	0.37641168
44	0x3e12ed32	0.14348295
45	0xbdb7ab78	-0.08968252
46	0x3e7022cc	0.23450774
47	0x3c7c1c3f	0.015387594
48	0x3e63a33b	0.22230236
49	0xbe1a4a68	-0.15067446
50	0xbedc1a09	-0.42988613
51	0xbdfe79d5	-0.12425581
52	0xbe3fc3f2	-0.18727091
53	0x3e79dca6	0.24400577
54	0x3df44af1	0.119283564
55	0x3e24c98a	0.16092506
56	0x3e0a0046	0.13476667
57	0x3c10ce5c	0.008838262
58	0x3e9275be	0.28605455
59	0xbe5d91bf	-0.21637629
60	0x3c870214	0.016480483
61	0xbe2c2946	-0.1681262
62	0x3e0f8df2	0.14018992
63	0xbe0b6b91	-0.13615252
64	0x3ce6b04b	0.028160235
65	0xbd17e7ac	-0.037086174
66	0x3e8f5983	0.2799798
67	0xbe94272c	-0.28936136
68	0xbe255d32	-0.16148832
69	0xbe3e8c27	-0.18608151
70	0x3e632dc5	0.22185428
71	0x3e3b6f37	0.18304144
72	0x3e82eceb	0.2557138
73	0xbe691a77	-0.22764002
74	0xbeabb7d4	-0.33538687
75	0xbeb07de7	-0.34471056
76	0xbe3c66d7	-0.18398605
77	0x3e398044	0.18115336
78	0x3d6b0052	0.057373352
79	0x3eb2be64	0.34910882
80	0xbdaae279	-0.083439775
81	0xbe5c75ec	-0.21529359
82	0x3e1b4be4	0.15165669
83	0xbddfb46d	-0.10923085
84	0x3e52fe33	0.20604782
85	0xbdd7d7ca	-0.10539205
86	0x3e7e490d	0.24832554
87	0xbe7fcaef	-0.24979757
88	0xbe3e4e5a	-0.18584576
89	0x3dd32a51	0.103108056
90	0x3dd337e2	0.10313393
91	0xbdf5442f	-0.119758956
92	0x3e4265cb	0.18984143
93	0x3e8bbf4f	0.27294394
94	0xbe57be69	-0.2106873
95	0xbdccd197	-0.100009136
96	0x3eaae440	0.33377266
97	0xbdd94ad4	-0.106099755
98	0xbd6d1e1b	-0.05789004
99	0xbeb70319	-0.3574455
100	0xbe1b93e9	-0.15193142
101	0xbd0fab46	-0.03507545
102	0xbd90bbb3	-0.07067051
103	0xbe43fe84	-0.19140059
104	0xbdb80e98	-0.089871585
105	0xbe855bc8	-0.26046586
106	0xbe771baa	-0.24131647
107	0xbe9129f0	-0.28352308
108	0xbe840e17	-0.25792
109	0xbe72a638	-0.2369622
110	0x3e76d3fc	0.24104303
111	0x3dca46cd	0.098767854
112	0x3d9803c8	0.07422596
113	0xbecf51c7	-0.4049208
114	0xbe45608b	-0.1927511
115	0xbe12b476	-0.14326653
116	0xbcfcad03	-0.030844217
117	0xbe668354	-0.22511035
118	0xbdf7d9d9	-0.12102098
119	0xbeab897c	-0.3350333
120	0x3d24a580	0.040196896
121	0xbdb7f7b7	-0.08982795
122	0xbe0c966e	-0.1372926
123	0xbe3b9c2c	-0.18321294
124	0xbe53980b	-0.20663469
125	0xbe925b03	-0.2858506
126	0xbcadb90e	-0.021206405
127	0xbe547c9f	-0.20750664
128	0x3e966df0	0.2938075
129	0xbcbacb6a	-0.022802074
130	0x3eaacdd0	0.33360147
131	0x3dff49df	0.12465262
132	0xbe6004ac	-0.21876782
133	0x3e9bcb61	0.30428603
134	0xbdeb1d9a	-0.114802554
135	0xbdabefd9	-0.08395357
136	0xbe982ef1	-0.29723313
137	0xbee4dee1	-0.44701293
138	0x3e1d0538	0.15334022
139	0xbdcb84e8	-0.09937459
140	0x3dac01c6	0.08398776
141	0xbe5d8de1	-0.21636154
142	0x3e521986	0.20517549
143	0xbe7a4f5c	-0.24444336
144	0x3d77335e	0.060351722
145	0x3d3e68ce	0.04648667
146	0x3e392c78	0.1808337
147	0x3eb0589d	0.34442607
148	0x3e87d3c4	0.26528752
149	0xbe71dc9b	-0.2361931
150	0x3e68ad14	0.22722274
151	0xbdd020a7	-0.10162478
152	0x3c1cd967	0.009573317
153	0xbe4a5df7	-0.19762407
154	0x3ebc6926	0.36798972
155	0xbea210e1	-0.31653503
156	0x3e3ac773	0.18240146
157	0x3e15a3e0	0.14613295
158	0x3cd8dd0b	0.026472589
159	0xbe2736ea	-0.16329542
160	0x3ea4b81b	0.3217171
161	0xbbebc333	-0.0071949004
162	0x3da9427b	0.08264633
163	0xbe885515	-0.26627412
164	0x3e255686	0.16146287
165	0x3cf9e6aa	0.030505497
166	0xbe302603	-0.17202
167	0x3e8d5814	0.2760626
168	0x3e1cbe22	0.15306905
169	0xbe055fa2	-0.13024762
170	0xbd66b9f5	-0.056329686
171	0x3d57a836	0.052650653
172	0x3da4603f	0.0802617
173	0xbe4bd7bf	-0.1990652
174	0xbde5a1c2	-0.112124935
175	0xbe1848ab	-0.1487147
176	0xbecad42e	-0.39615005
177	0x3e200e96	0.15630564
178	0x3e4b6c12	0.19865444
179	0xbecfb3fe	-0.4056701
180	0x3db1f04a	0.086884096
181	0x3e2dfe30	0.16991496
182	0x3db9b20f	0.09067165
183	0xbddbf5c7	-0.10740238
184	0x3e3a3466	0.18184051
185	0x3e4eab33	0.20182495
186	0x3e02339b	0.12714998
187	0xbd2bd8f4	-0.04195495
188	0xbdab8934	-0.08375779
189	0x3dacba25	0.08433942
190	0x3c1c0290	0.009522095
191	0xbdf6216b	-0.12018093
192	0x3e4c4b84	0.19950682
193	0x3e964a19	0.29353407
194	0xbda7a583	-0.08185866
195	0xbd1c8cd2	-0.038220234
196	0x3db48c3b	0.08815809
197	0xbd92d12d	-0.07168803
198	0x3e08372f	0.13302301
199	0x3cd9d7a7	0.026592089
200	0xbe648239	-0.22315301
201	0xbdd3c1ec	-0.10339722
202	0x3e5488d7	0.20755325
203	0x3e5ae7d3	0.21377496
204	0xbc8be0f5	-0.017075041
205	0xbe983734	-0.29729617
206	0xbe2134e0	-0.15742826
207	0xbe9861bc	-0.29762065
208	0xbe08ab4a	-0.13346592
209	0x3da1774c	0.07884082
210	0x3e4c7875	0.19967826
211	0x3de53577	0.11191838
212	0xbeaabc80	-0.3334694
213	0xbe812bca	-0.2522872
214	0xbd9835fe	-0.07432173
215	0x3e91a679	0.2844732
216	0x3d3de6ef	0.046362814
217	0xbd9f78d0	-0.07786715
218	0x3e187e47	0.14891921
219	0xbe22d718	-0.15902364
220	0xbe3abd54	-0.18236285
221	0x3e64b4ff	0.2233467
222	0xbe4e1155	-0.20123799
223	0xbbd1b3c1	-0.006399602
224	0xbea97ee9	-0.33104637
225	0x3e10de8c	0.14147395
226	0x3e6f21c5	0.23352726
227	0x3df2a70d	0.11848269
228	0xbe9e3706	-0.30901355
229	0xbeb51b6c	-0.35372484
230	0xbeb5650e	-0.3542866
231	0x3e0eb650	0.13936734
232	0x3e31c4f5	0.1736029
233	0x3e74794c	0.23874396
234	0x3e59c712	0.21267346
235	0x3e384949	0.17996706
236	0x3d8b7e5e	0.06811212
237	0xbea105b1	-0.31449655
238	0xbe536670	-0.20644546
239	0xbe9bc652	-0.30424744
240	0x3d98e04d	0.07464657
241	0xbdc43402	-0.09580232
242	0xbd58569d	-0.052816976
243	0xbdff8fb2	-0.124785796
244	0xbddb5c6f	-0.1071099
245	0xbeb34c57	-0.3501918
246	0xbe2906e8	-0.16506541
247	0x3da1d9ee	0.07902895
248	0xbe6d5dcb	-0.2318031
249	0x3e5e058e	0.21681806
250	0xbe00cd78	-0.1257838
251	0xbeb3c089	-0.3510783
252	0x3b7c4c14	0.0038497495
253	0xbe7c7361	-0.24653389
254	0xbcd8ba0c	-0.026455902
255	0xbe8518e9	-0.25995567

bias f4 [32]
0	0x3e8ee8df	0.27912042
1	0xbd5597fc	-0.052146897
2	0xbd1b44c0	-0.037907362
3	0xbe0b3b82	-0.13596919
4	0xbe9a267e	-0.30107492
5	0xbea6eb19	-0.3260124
6	0x3dfddc1d	0.12395499
7	0xbe37f22a	-0.17963472
8	0xbe5b8190	-0.21436143
9	0xbcd4ff4c	-0.026000641
10	0xbde30484	-0.11084846
11	0xbddce592	-0.107859746
12	0x3c2f0766	0.010682916
13	0xbd905b95	-0.07048718
14	0xbdeb19bb	-0.11479517
15	0xbe2302fb	-0.15919106
16	0xbe8acc9f	-0.27109239
17	0x3e8f07b8	0.27935576
18	0xbe083d8a	-0.13304725
19	0x3db5a190	0.08868706
20	0xbdeca322	-0.115545526
21	0x3ce0a255	0.027421156
22	0x3e9ee43b	0.310335
23	0x3e1d474a	0.15359226
24	0xbe93edbd	-0.28892317
25	0x3e070fdc	0.13189644
26	0x3ea2a82b	0.31768927
27	0x3db537ec	0.08848557
28	0x3e606edc	0.2191729
29	0x3ea86f81	0.3289757
30	0xbd4eacd6	-0.050457798
31	0x3d8d88f4	0.06910887

weight f4 [32]
0	0x3f822b5f	1.0169486
1	0x3f7c39bc	0.98525596
2	0x3f6e12bc	0.92997336
3	0x3f726b9a	0.94695437
4	0x3f82f4d3	1.0230964
5	0x3f84acf3	1.036528
6	0x3f7b0c56	0.980657
7	0x3f831c2a	1.024297
8	0x3f82133b	1.0162119
9	0x3f755d27	0.95845264
10	0x3f82e594	1.0226312
11	0x3f6edb15	0.9330304
12	0x3f6001cd	0.8750275
13	0x3f7ef764	0.9959624
14	0x3f705cfd	0.9389189
15	0x3f7d4048	0.9892621
16	0x3f810ccf	1.0082034
17	0x3f7b42c7	0.9814877
18	0x3f7548c1	0.9581414
19	0x3f8b1933	1.0867065
20	0x3f796159	0.97414166
21	0x3f7fb6b7	0.99888176
22	0x3f86cb2f	1.0530757
23	0x3f6a3dee	0.9150075
24	0x3f743b62	0.9540311
25	0x3f848651	1.035349
26	0x3f86c66c	1.0529304
27	0x3f8b94d0	1.0904789
28	0x3f85f467	1.0465211
29	0x3f81e40a	1.0147717
30	0x3f7e3d45	0.9931224
31	0x3f727f1e	0.94725215

bias f4 [32]
0	0xbce9aa77	-0.028523667
1	0xbd823d17	-0.06359308
2	0x3da413a8	0.08011562
3	0x3d37e5e6	0.044896983
4	0xbd465887	-0.04842427
5	0xbc8fda15	-0.017560044
6	0xbd3754d3	-0.04475863
7	0x3bebdeda	0.007198197
8	0xb97e5acb	-0.0002425715
9	0x3d30894e	0.043099694
10	0x3d38be0c	0.045103118
11	0x3d959255	0.07303301
12	0x3db248fa	0.087053254
13	0x3d983265	0.07431487
14	0xbcbb4f66	-0.022865009
15	0x3bdb0da9	0.006684978
16	0xbd38a3b3	-0.04507799
17	0xbd901977	-0.07036107
18	0x3d84659f	0.06464695
19	0xbc2725e8	-0.010201909
20	0xbd6ae625	-0.05734839
21	0xbda53daf	-0.08068406
22	0xbd5d1623	-0.05397619
23	0x3b3fd5c8	0.002927171
24	0xbd29915b	-0.041398387
25	0xbda0269c	-0.07819864
26	0x3c9620d2	0.018326197
27	0xbd115b9a	-0.03548775
28	0xbce2fe0a	-0.027709026
29	0xbd06e2d9	-0.032931183
30	0x3c6649e1	0.0140557
31	0x3d6c08a5	0.05762543

running_mean f4 [32]
0	0xc03db50b	-2.964175
1	0xc08a4b50	-4.3216934
2	0x4018c044	2.386735
3	0x3f6d0009	0.9257818
4	0xc0ea6f6f	-7.3261027
5	0xbf23c709	-0.6397558
6	0xc01d726c	-2.4601088
7	0x3e84877f	0.25884625
8	0xbf1e8734	-0.61925054
9	0x4072f72f	3.796337
10	0xbfe1a721	-1.7629129
11	0x40c6c39d	6.2113786
12	0x404e6b51	3.2253
13	0x3f9d7c57	1.230357
14	0x3e7d67c2	0.24746612
15	0xbf82ad07	-1.0209054
16	0xc0c6b570	-6.209648
17	0xc0b37565	-5.6080804
18	0x4075cb70	3.8405418
19	0xc0cd351f	-6.4127345
20	0xbfe3cc42	-1.779671
21	0xc0b56768	-5.668873
22	0xbe562e2d	-0.20916052
23	0x40456d21	3.0847857
24	0x407598e9	3.837458
25	0x3e0cf233	0.13764267
26	0xbd3f31de	-0.046678416
27	0xc048f227	-3.1397798
28	0x3fc5d385	1.5455176
29	0xc0cf3a77	-6.475887
30	0xbebcd159	-0.3687847
31	0x40992f7a	4.7870455

running_var f4 [32]
0	0x44f27c7b	1939.89
1	0x45679c1f	3705.7576
2	0x444b006e	812.0067
3	0x44e2e658	1815.1982
4	0x45b05e7c	5643.8105
5	0x42e07682	112.23146
6	0x4405c858	535.1304
7	0x427a76eb	62.61613
8	0x4307048f	135.0178
9	0x44150395	596.05597
10	0x459cdf60	5019.922
11	0x4560b73f	3595.453
12	0x446f4992	957.14954
13	0x44856ebf	1067.4608
14	0x44d679e9	1715.8097
15	0x437da5b8	253.64734
16	0x451ee33e	2542.2026
17	0x45a60fab	5313.9585
18	0x454a6460	3238.2734
19	0x44638555	910.0833
20	0x43f4c85a	489.56525
21	0x44b29c81	1428.8907
22	0x426a5aee	58.5888
23	0x443976be	741.85535
24	0x4467ca26	927.15857
25	0x42aa9bc3	85.30422
26	0x42ddb6bc	110.8569
27	0x4385e191	267.76224
28	0x42b44138	90.12738
29	0x45093a37	2195.6384
30	0x441800e2	608.0138
31	0x44f55b3b	1962.851

weight f4 [64, 32, 3, 3]
0	0xbd22a35c	-0.039706573
1	0xbd33d51e	-0.043904416
2	0x3d52aa63	0.051432025
3	0x3cd8fd4d	0.02648797
4	0xbd0caf3e	-0.03434681
5	0xbd7420a8	-0.059601456
6	0xbd3104d3	-0.04321749
7	0xbd4c7ff4	-0.049926713
8	0xbd84affb	-0.06478878
9	0xbca1c3af	-0.01974663
10	0x3b7cf6c0	0.0038599223
11	0x3d3ad95a	0.04561744
12	0xbbf2fc52	-0.007415333
13	0xbd93583d	-0.071945645
14	0x3cba7e5f	0.022765337
15	0xbda7860d	-0.08179865
16	0xbd042cd9	-0.032269333
17	0x3d300c5f	0.042980548
18	0xbd3adba3	-0.04561962
19	0xbcb138db	-0.021633556
20	0xbd07f0e7	-0.033188727
21	0xbd40deb7	-0.047087397
22	0xbd3f551d	-0.04671203
23	0xbda53c47	-0.080681376
24	0xbd1a2d4a	-0.037640847
25	0xbd41c88c	-0.047310397
26	0x3d0c2474	0.034214452
27	0xbd1e6aef	-0.0386762
28	0xbd4c8827	-0.049934532
29	0xbd09a74e	-0.03360682
30	0x3d1879d6	0.037225567
31	0x3c57fba5	0.013182555
32	0xbc44b255	-0.012005408
33	0x3d3b2d8b	0.04569773
34	0xbd7ae366	-0.06125202
35	0xbd3f4d49	-0.046704564
36	0xbc23b7e4	-0.009992573
37	0xbc69c687	-0.014268524
38	0xbbe5a09c	-0.0070076715
39	0x3d9f4947	0.077776484
40	0xbd02ee91	-0.031965796
41	0xbd16af6d	-0.036788393
42	0xbda973a9	-0.082740135
43	0xbbd7aeeb	-0.006582131
44	0x3cf9526c	0.03043481
45	0x3d4b01a3	0.049562108
46	0x3ce6043b	0.02807819
47	0xbdc73eeb	-0.097287975
48	0xbc8f641e	-0.017503794
49	0xbc53b679	-0.012921923
50	0x3dcc8da8	0.09987956
51	0x3d7d7e4d	0.061888028
52	0xbd228e0d	-0.03968625
53	0xbd0cd68e	-0.034384303
54	0xbc988ad9	-0.018620895
55	0xbc72412f	-0.014786049
56	0x3d28e58e	0.041234545
57	0x3ca08564	0.019594856
58	0x3d56223d	0.052278746
59	0xbc2483db	-0.010041202
60	0x3d617f73	0.055053186
61	0xbc7d5499	-0.015462064
62	0x3bf7d374	0.007563049
63	0x3d6eb9e5	0.05828275
64	0x3c5ebb1c	0.013594415
65	0x3d9d07f6	0.07667534
66	0x3d5b9680	0.053610325
67	0xbbdcd8d7	-0.0067397165
68	0x3d039757	0.03212675
69	0x3ca7792b	0.02044352
70	0x3ac5416a	0.0015049402
71	0x3aaace00	0.0013031363
72	0x3d917776	0.071028635
73	0x3d632d91	0.055463377
74	0x3c1753fd	0.009236333
75	0x3cba6d0d	0.022757078
76	0xbc434834	-0.01191907
77	0xbc8e8790	-0.017398626
78	0x3d514a88	0.05109647
79	0x3cf97666	0.030451965
80	0x3beb4307	0.007179621
81	0x3cf74551	0.03018442
82	0x3bb673ad	0.005567989
83	0xbcb70a0b	-0.022343656
84	0x3ba19488	0.0049310364
85	0xbd7ab66f	-0.06120914
86	0xbcc2371f	-0.023707924
87	0x3ca4bc61	0.020109357
88	0xbcd49965	-0.02595205
89	0xb99fba5b	-0.0003046569
90	0xbc83cf3c	-0.016090028
91	0xbd59f187	-0.053208854
92	0xbc8f5c22	-0.017499987
93	0x3b546c20	0.003241308
94	0x3b91b518	0.004446637
95	0xbdc410d0	-0.09573519
96	0xbbce9a05	-0.0063049817
97	0xbd104746	-0.03522422
98	0xbdfaf4c5	-0.12253717
99	0xbd6dd8c1	-0.05806804
100	0xbb90cad2	-0.0044187093
101	0xbd4306b0	-0.0476138
102	0xbd083294	-0.03325136
103	0x3d301f54	0.042998627
104	0x3d4e577a	0.050376393
105	0x3baa7f8a	0.005203192
106	0xbd508f22	-0.050917752
107	0xbd63cfa5	-0.055617947
108	0xbcf1ac28	-0.029501036
109	0x3b40d7a5	0.002942541
110	0xbc3d8b0d	-0.011568797
111	0xbd661417	-0.056171503
112	0xbd0a9ac7	-0.033839013
113	0x3cde75b4	0.027155735
114	0xbd711939	-0.058861945
115	0x3c7b6ca3	0.015345725
116	0xbcb13e64	-0.021636195
117	0xbd39d247	-0.04536655
118	0xbc4302a3	-0.011902484
119	0xbd81e887	-0.06343179
120	0xbd177ea9	-0.036986027
121	0x3d2a420d	0.041566897
122	0xbda584fc	-0.080820054
123	0x3cbe2979	0.023213135
124	0x3d26902b	0.040664833
125	0xbdb1fc05	-0.08690647
126	0xbca4ad61	-0.020102205
127	0x3cc69c13	0.024244344
128	0x3d81d320	0.06339097
129	0xbcee0c04	-0.029058464
130	0xbcb98e27	-0.022650791
131	0xbd554f2e	-0.052077465
132	0xbd156e4d	-0.036482144
133	0xbc7f12ed	-0.015568477
134	0x3b18cc8d	0.002331528
135	0xbca13aaa	-0.019681294
136	0x3c0e5701	0.008687736
137	0xbbce7927	-0.0063010636
138	0xba1822f3	-0.00058035477
139	0xbd6bac5f	-0.057537433
140	0xbe092f57	-0.13396965
141	0xbc495f8b	-0.012290846
142	0xba0593a7	-0.0005095549
143	0xbe157097	-0.14593731
144	0x3cce9211	0.025216134
145	0xbc802100	-0.015640736
146	0xbddf16b4	-0.10893002
147	0xbcbb7c45	-0.022886405
148	0x3d9b0ea9	0.075711556
149	0x3d019bde	0.031642787
150	0x3d67f1f3	0.056627225
151	0x3cd3192a	0.025768835
152	0x3a8894e9	0.0010420355
153	0xbcc8f08a	-0.02452876
154	0xbd9d4196	-0.07678525
155	0x3cf6a130	0.030106157
156	0xbc9c3bb3	-0.019071436
157	0xbdc99929	-0.09843666
158	0xbd357860	-0.04430425
159	0x3be7e861	0.0070772623
160	0xbd0e5ade	-0.034754626
161	0xbd6e274c	-0.058142945
162	0xbcf8756b	-0.030329427
163	0xbd1878a3	-0.037224423
164	0xbddc0ff3	-0.107452296
165	0xbd712227	-0.05887046
166	0x3bcff475	0.00634628
167	0xbd98e79e	-0.074660525
168	0x3d361dee	0.044462137
169	0x3c9b6299	0.018967913
170	0xbd60ad2a	-0.054852642
171	0xbc435b34	-0.0119236
172	0xbcca6191	-0.024704726
173	0xbd9dabfb	-0.07698818
174	0xbd145a9d	-0.036219228
175	0xbb97bf23	-0.0046309396
176	0xbd829c44	-0.063774616
177	0x3bff5953	0.0077926307
178	0xbc9d15e0	-0.01917547
179	0xbdb4931b	-0.08817121
180	0xbb5683c0	-0.0032732338
181	0xbadbf37d	-0.0016780939
182	0x3d012272	0.03152699
183	0x3d3f1bae	0.046657257
184	0x3d85feb5	0.06542722
185	0x3d5e2a39	0.054239485
186	0xbd64a11b	-0.055817705
187	0xbcc4658f	-0.023974208
188	0xbc1d6d46	-0.009608572
189	0x3b0f690f	0.0021882688
190	0x3c1b11a1	0.009464652
191	0xbd9a6e4b	-0.07540568
192	0x3c987a88	0.018613115
193	0xbcc2ed14	-0.023794688
194	0xbd278ff9	-0.040908787
195	0xbd615ee0	-0.05502212
196	0x3d6edfe4	0.058318987
197	0xbd93b906	-0.07213025
198	0x3da5ded2	0.0809914
199	0x3bec82f7	0.0072177607
200	0x3c8d4059	0.017242597
201	0x3dc519f3	0.0962409
202	0x3cdce1f4	0.026963212
203	0x3d260679	0.040533517
204	0x3dd35cc4	0.10320428
205	0xbd4b9f1c	-0.049712285
206	0x3dc0271a	0.09382458
207	0xbbf45189	-0.007456009
208	0x3b6b7b22	0.0035931547
209	0x3cc646ae	0.024203625
210	0xbbce4937	-0.006295349
211	0xbd0bceac	-0.034132645
212	0xbc769efa	-0.015052551
213	0x3d9cec90	0.07662308
214	0x3cb006d7	0.021487636
215	0x3d0350b8	0.0320594
216	0xbd5ea34c	-0.05435495
217	0xbc69defb	-0.014274354
218	0xbdd8a807	-0.10578924
219	0x3c8a7e10	0.016905814
220	0xbd7ef9ef	-0.062250074
221	0xbc8d3214	-0.017235793
222	0xbd0ccd3f	-0.034375425
223	0xbca754fa	-0.020426262
224	0x3d732ff1	0.059371892
225	0xbc479144	-0.01218063
226	0x3d90fac9	0.070790835
227	0xbc924b01	-0.01785803
228	0x3d8d7076	0.06906216
229	0x3d1b66d1	0.03793985
230	0x3d5d5d48	0.054044038
231	0x3d8de603	0.06928637
232	0x3d814abb	0.06313082
233	0x3d3863e9	0.045017157
234	0xbcd0a0e3	-0.025467342
235	0xbcb82580	-0.022478819
236	0xbd91555a	-0.07096358
237	0xbbd497d2	-0.006487825
238	0x3da2b5fc	0.07944867
239	0x3d469bea	0.048488535
240	0x3da05229	0.07828171
241	0x3e00d33c	0.1258058
242	0xbc8733d9	-0.016504215
243	0xbde0cacf	-0.10976183
244	0xbd71dbed	-0.05904763
245	0xbe0d96fa	-0.13827124
246	0xbdc57d96	-0.09643094
247	0xbda4c334	-0.080450445
248	0xbdf44e25	-0.119289674
249	0xbd602cc9	-0.05473021
250	0xbd992bfa	-0.07479091
251	0xbe278762	-0.16360238
252	0xbd4e75c4	-0.05040528
253	0x3b838bca	0.004014467
254	0x3dbe2761	0.09284855
255	0x3d68a3e7	0.056796934

bias f4 [64]
0	0xbd71c383	-0.059024345
1	0xbc4db4b1	-0.012555287
2	0x3d14ad30	0.036297977
3	0xbd238a7a	-0.039926983
4	0xbca05f87	-0.019576801
5	0x3b9831c9	0.0046446067
6	0xbd060814	-0.032722548
7	0x3bcf1177	0.0063192206
8	0xbd516951	-0.05112583
9	0x3c79120c	0.015202057
10	0x3d794a08	0.060861617
11	0x3b9aca04	0.004723789
12	0x3d760ef0	0.06007284
13	0xbd52332f	-0.051318344
14	0xbce8a69d	-0.02839976
15	0xbc93c263	-0.018037027
16	0x3d4f81d8	0.050660938
17	0xbd4cf202	-0.050035484
18	0xbbb43f9c	-0.005500747
19	0xbd81a7c5	-0.063308276
20	0x3c6eb760	0.014570087
21	0xbd4f85a5	-0.050664563
22	0xbd26d3f5	-0.04072948
23	0xbd29c759	-0.04144988
24	0xbcd78b25	-0.026311466
25	0x3d169dd5	0.036771614
26	0x3bc396f3	0.0059689223
27	0xbd634482	-0.055485256
28	0x3d65b086	0.05607655
29	0xbb84a8f3	-0.0040484606
30	0x3c831b61	0.016004266
31	0xbcf64f25	-0.030067036
32	0xbccbf3d1	-0.024896534
33	0xbd468518	-0.04846677
34	0xbd3f7f74	-0.04675241
35	0xbcf1d325	-0.029519627
36	0x3d04eb68	0.032451063
37	0xbcad95c5	-0.02118958
38	0xbd4688a9	-0.048470173
39	0x3c79eb2a	0.015253821
40	0xbbd05e37	-0.0063588875
41	0xbd10530b	-0.035235446
42	0x3d3bef17	0.04588231
43	0xbd56995e	-0.052392356
44	0xbd5af22f	-0.05345362
45	0x3d1be8e8	0.038063914
46	0x3d0b95cc	0.034078404
47	0xbc6852d2	-0.014179902
48	0x3d291185	0.041276474
49	0xbd0aecbb	-0.03391717
50	0xbcd4cf16	-0.025977653
51	0xbbeb114c	-0.007173693
52	0xbca16866	-0.019703101
53	0x3d0b614b	0.034028333
54	0xbd5c8388	-0.053836375
55	0x3d4eff1e	0.050536267
56	0x3d117fa3	0.035522114
57	0xbd0addc1	-0.033902887
58	0xbd0067d6	-0.031349026
59	0x3bdd42d8	0.006752353
60	0xbb1a952a	-0.0023587444
61	0xbd60e4c1	-0.054905657
62	0x3d360a92	0.044443674
63	0x3d4243a9	0.047427807

weight f4 [64]
0	0x3f760723	0.9610464
1	0x3f806dd6	1.0033519
2	0x3f85790f	1.0427569
3	0x3f82e4b8	1.022605
4	0x3f7a0394	0.9766171
5	0x3f74fd24	0.9569876
6	0x3f8066f2	1.0031416
7	0x3f7688c2	0.96302426
8	0x3f8235ef	1.0172709
9	0x3f7a7a26	0.97842634
10	0x3f831b53	1.0242714
11	0x3f7fba5e	0.9989375
12	0x3f831126	1.0239608
13	0x3f7c140d	0.98468095
14	0x3f847e83	1.0351108
15	0x3f7e1414	0.99249387
16	0x3f5f3f39	0.87205845
17	0x3f848558	1.0353193
18	0x3f8449c7	1.0335015
19	0x3f8252b2	1.0181487
20	0x3f853cfb	1.0409235
21	0x3f7d8cbc	0.9904287
22	0x3f853978	1.0408163
23	0x3f80739f	1.0035285
24	0x3f7db428	0.9910302
25	0x3f87e047	1.0615319
26	0x3f814751	1.0099889
27	0x3f7a11ff	0.9768371
28	0x3f7fd7d4	0.999387
29	0x3f7bb0be	0.9831656
30	0x3f6f66f9	0.935165
31	0x3f75e593	0.9605343
32	0x3f7d0f63	0.98851603
33	0x3f862a16	1.0481594
34	0x3f7fe7cb	0.99963063
35	0x3f7a2d84	0.977257
36	0x3f7ebb80	0.9950485
37	0x3f821328	1.0162096
38	0x3f7a8f4d	0.9787491
39	0x3f7ab0bc	0.97925925
40	0x3f84bd8c	1.0370345
41	0x3f844d78	1.0336142
42	0x3f837548	1.0270166
43	0x3f821f9e	1.0165899
44	0x3f809b5c	1.0047412
45	0x3f82fe1a	1.0233796
46	0x3f7f2a41	0.9967385
47	0x3f86e2a8	1.053792
48	0x3f74eb3f	0.9567146
49	0x3f882339	1.0635749
50	0x3f7efc31	0.99603564
51	0x3f7a1425	0.9768699
52	0x3f82d2cb	1.0220579
53	0x3f7ff09d	0.9997652
54	0x3f6b3cd7	0.9188971
55	0x3f8acb64	1.084332
56	0x3f72fe6f	0.94919485
57	0x3f7b3a1b	0.98135537
58	0x3f7cf00f	0.988038
59	0x3f8a6301	1.0811464
60	0x3f6ee06c	0.9331119
61	0x3f6ee290	0.93314457
62	0x3f8468ad	1.0344445
63	0x3f8626c3	1.0480579

bias f4 [64]
0	0xbd5c9ad0	-0.05385858
1	0xbccc3016	-0.024925273
2	0xbd523807	-0.051322963
3	0xbd8c9919	-0.068651386
4	0xbd701e13	-0.05862243
5	0xbdf9d91f	-0.12199616
6	0xbd4e6776	-0.050391637
7	0xbd195d6e	-0.037442617
8	0xbd78accb	-0.060711663
9	0xbd437981	-0.047723297
10	0xbcb665f0	-0.022265404
11	0xbd33c9d8	-0.043893665
12	0xbcffa694	-0.03120736
13	0xbd3d0b1f	-0.046153184
14	0xbb9505e9	-0.0045478237
15	0xbd2ae7f8	-0.04172513
16	0xbda06eb2	-0.078336135
17	0xbd238dba	-0.039930083
18	0xbd5634d2	-0.052296467
19	0xbd8590fa	-0.06521793
20	0xbc8e8cd6	-0.01740114
21	0xbd8148c9	-0.06312711
22	0xbd16ddbe	-0.036832564
23	0xbcc386ce	-0.02386799
24	0xbdaa0574	-0.08301821
25	0x3c3250da	0.010883534
26	0xbcc5a18e	-0.024124887
27	0xbd14df9f	-0.036346074
28	0xbcea9ef6	-0.028640252
29	0xbc57a59d	-0.013162044
30	0xbe0d442a	-0.13795534
31	0xbc5019e8	-0.012701489
32	0x3bcc633f	0.006237417
33	0xbd169033	-0.036758613
34	0xbd2d713f	-0.042344328
35	0xbd74a58c	-0.05972819
36	0xbd24fdc8	-0.040281087
37	0xbd19515f	-0.037431117
38	0xbbeb8a3d	-0.00718811
39	0xbdbe16c7	-0.09281688
40	0x3ce15926	0.02750833
41	0xbc9bfe70	-0.019042224
42	0xbc3ec6df	-0.011644094
43	0x3d001b2a	0.031275906
44	0x3c5d2443	0.013497415
45	0xbcc39044	-0.023872502
46	0xbd54ac18	-0.051921934
47	0xbc17c247	-0.009262628
48	0xbd2b13e9	-0.041767035
49	0xbd9af86a	-0.075669125
50	0xbd257869	-0.040398035
51	0x3cad7de5	0.021178195
52	0xbd6a3410	-0.057178557
53	0x3d239efa	0.039946534
54	0xbd668fd1	-0.056289498
55	0xbcf0a048	-0.029373303
56	0xbc1677ed	-0.009183866
57	0xbcf8f191	-0.030388625
58	0xbd0f7046	-0.03501918
59	0x3a201f4a	0.0006108178
60	0xbd24b866	-0.04021492
61	0xbd138247	-0.036012914
62	0xbcda162c	-0.0266219
63	0xbc7417b8	-0.014898233

running_mean f4 [64]
0	0xbedc6a08	-0.43049645
1	0xbef1458a	-0.47123367
2	0xbe0def3a	-0.13860789
3	0xbec38d7e	-0.38193887
4	0xbecdaab9	-0.40169314
5	0xbf6868ce	-0.9078492
6	0xbf2c2978	-0.67250776
7	0xbe97a54a	-0.29618293
8	0x3cb1a57a	0.02168535
9	0xbf015308	-0.5051732
10	0xbeec50bb	-0.46155342
11	0xbe83d36c	-0.2574724
12	0xbe61d987	-0.22055636
13	0xbf3086d4	-0.6895573
14	0xbe9df3b9	-0.30850008
15	0xbf08bf99	-0.53417355
16	0x3e021502	0.12703326
17	0xbd2a812a	-0.041627087
18	0xbf226331	-0.63432604
19	0xbf45466c	-0.7706058
20	0xbecb2b30	-0.39681387
21	0xbebec734	-0.37261355
22	0xbee7c1e8	-0.45265126
23	0xbf12fd94	-0.5741818
24	0xbf25304c	-0.6452682
25	0xbe0d540a	-0.1380159
26	0xbf105dfc	-0.5639341
27	0xbdbba272	-0.09161843
28	0xbe564f4d	-0.20928688
29	0xbd0f56dc	-0.034994945
30	0xbf25cef5	-0.64768916
31	0xbef537cf	-0.4789414
32	0xbf0ea93a	-0.5572697
33	0xbf29c310	-0.66313267
34	0xbf5e5ffa	-0.868652
35	0xbf315eb0	-0.69285107
36	0xbe895d20	-0.2682886
37	0xbd6ccee6	-0.0578145
38	0xbec49b8a	-0.38399917
39	0xbe2ecd91	-0.17070605
40	0xbedbeb02	-0.42952734
41	0xbf11ed5b	-0.570028
42	0xbe309143	-0.17242913
43	0xbe511e5e	-0.2042174
44	0xbea3a45e	-0.3196134
45	0xbe9213df	-0.28530785
46	0xbec7e08a	-0.39038497
47	0xbdb63151	-0.08896125
48	0xbeedfcc3	-0.46481904
49	0x3e134e3c	0.14385313
50	0xbdcc177b	-0.09965416
51	0xbe0be13b	-0.13660137
52	0xbeb3d184	-0.35120785
53	0xbe1e9edd	-0.15490289
54	0x3f62edf4	0.8864434
55	0x3e5d243e	0.21595857
56	0xbba89a49	-0.0051453453
57	0xbf1b122c	-0.60574603
58	0xbf18803c	-0.5957067
59	0xbdb60466	-0.08887558
60	0x3f212f41	0.6296273
61	0x3e8a81f8	0.27052283
62	0xbeab525e	-0.3346128
63	0xbe87a816	-0.26495427

running_var f4 [64]
0	0x3f2af8f1	0.66786104
1	0x3f7c2a2c	0.9850185
2	0x3f976feb	1.183103
3	0x3f223365	0.6335967
4	0x3f854bdf	1.0413779
5	0x3fa8ed0d	1.3197342
6	0x3fdaaf28	1.7084703
7	0x3f854ebc	1.0414653
8	0x3f865ea2	1.049763
9	0x404468d2	3.0688977
10	0x3fb4cea9	1.4125568
11	0x3f5d19ad	0.86367303
12	0x3edb395c	0.428172
13	0x4011b3b2	2.2765927
14	0x3f903cf9	1.1268607
15	0x4016ab23	2.3541954
16	0x3f20315e	0.6257533
17	0x3f65c594	0.89754605
18	0x3fd9728c	1.6988082
19	0x3fad00fa	1.3515923
20	0x3f80a178	1.0049276
21	0x3f94f86a	1.163831
22	0x3fe257f2	1.7683089
23	0x3f9f1a5c	1.2429919
24	0x3f76c30c	0.9639137
25	0x3f775516	0.96614206
26	0x3f9ee06e	1.241224
27	0x3f356aa6	0.7086586
28	0x3ef681e2	0.48145968
29	0x3efbb3d4	0.49160635
30	0x403f5d06	2.9900527
31	0x3f5c32ea	0.8601519
32	0x4041acf2	3.0261807
33	0x3fba446f	1.4552134
34	0x402f707d	2.7412407
35	0x402500be	2.5781703
36	0x4003116d	2.0479386
37	0x3f478ff1	0.7795401
38	0x3f80e12a	1.0068715
39	0x3f6646ba	0.8995167
40	0x3f75440a	0.95806944
41	0x3f824f0c	1.0180373
42	0x3f0a9063	0.54126567
43	0x3fbaabbe	1.4583662
44	0x3f346248	0.70462465
45	0x3f9ff260	1.2495842
46	0x3f5968c2	0.8492547
47	0x3f177605	0.5916446
48	0x3fcccd3b	1.6000131
49	0x3f682944	0.90687966
50	0x3f27cc37	0.6554598
51	0x3f50ed41	0.8161202
52	0x3f88a9c2	1.0676806
53	0x3f09151a	0.53547823
54	0x402695f4	2.6029024
55	0x3f582dd7	0.84444946
56	0x3f153380	0.5828171
57	0x4014e40b	2.3264186
58	0x3fbd6a94	1.479815
59	0x3f38b006	0.7214359
60	0x3fcb8786	1.5900733
61	0x3fa482c6	1.2852409
62	0x3f91e12a	1.139684
63	0x3f92ee18	1.147891

weight f4 [128, 64, 3, 3]
0	0x3c61149f	0.013737827
1	0x3d8c646e	0.06855093
2	0x3c254dc8	0.010089345
3	0xbd294e3e	-0.041334383
4	0x3d0e62a7	0.03476205
5	0x3d7a3ef6	0.0610952
6	0x3c57341e	0.013134984
7	0x3d5525a7	0.05203786
8	0xbcc00c9f	-0.023443518
9	0xbd38d28d	-0.045122672
10	0xbd9b6573	-0.07587709
11	0xbd7cf589	-0.061757598
12	0xbb7ff0f8	-0.003905354
13	0xbd082c5c	-0.03324543
14	0xbc2b00dd	-0.010437218
15	0xbd242da2	-0.04008258
16	0xbd35fc86	-0.04443028
17	0xbcc28aca	-0.02374782
18	0x3d096e71	0.03355259
19	0xbdd3588c	-0.10319623
20	0xbd0f9f71	-0.035064165
21	0x3d90918c	0.07059011
22	0xbcb1a08c	-0.021683
23	0xbcd36ccf	-0.02580872
24	0xbc474f65	-0.012164925
25	0x3c470ea6	0.012149489
26	0x3c36eba9	0.011164584
27	0xbb7612ba	-0.0037547783
28	0xbce0aee4	-0.027427144
29	0xbd205daa	-0.039151825
30	0xbc5dc35b	-0.013535346
31	0x3d41d90c	0.047326133
32	0x3d752cd0	0.05985719
33	0xbc104503	-0.008805516
34	0x3d7f3978	0.062310666
35	0x3c9471ea	0.018120725
36	0xbd7dbd0d	-0.06194787
37	0xbc055871	-0.008138762
38	0xbc862407	-0.016374601
39	0xbda88b22	-0.082296625
40	0x3baa0bda	0.005189401
41	0xbd07e556	-0.033177696
42	0xbd453601	-0.048147205
43	0x3d5105eb	0.051031034
44	0x3cfad45a	0.030618835
45	0x3c82953f	0.015940307
46	0xbd0090f1	-0.031388227
47	0x3cbcc249	0.023041861
48	0xbce1d6c5	-0.02756823
49	0x3c528c41	0.012850822
50	0xbcc50360	-0.02404946
51	0x3c1c24a9	0.009530225
52	0xbd2f3c40	-0.04278207
53	0xbce08c76	-0.027410727
54	0xbb29261d	-0.002581007
55	0xbcffd270	-0.031228274
56	0x3c493ce3	0.012282583
57	0xbda41d30	-0.080133796
58	0x3ce56edd	0.028006965
59	0xbd98b073	-0.0745553
60	0xbcd3de52	-0.025862847
61	0xbbfb87e5	-0.007676112
62	0xbd918e3d	-0.07107208
63	0x3d91dad7	0.071218185
64	0x3ce5ddd6	0.028059881
65	0x3d20ae4e	0.03922873
66	0xbba99d8a	-0.005176251
67	0x3d59417d	0.05304097
68	0xbb93fda7	-0.0045163217
69	0xbc1b4f5d	-0.009479371
70	0xbcb506e5	-0.022098014
71	0x3d6d708c	0.05796866
72	0x3d8a13b2	0.06742038
73	0xbd5fbbd3	-0.054622483
74	0xbd220f95	-0.03956564
75	0x3d976566	0.07392387
76	0xbd9719f6	-0.073779985
77	0xbdad2dc0	-0.08455992
78	0x3c046798	0.008081339
79	0xbce4e6d8	-0.027942106
80	0x3d715791	0.0589214
81	0xbc98a2bb	-0.018632283
82	0xbc9e32e7	-0.019311382
83	0x3d8fd3ab	0.07022794
84	0xbc3b4b9b	-0.0114316
85	0xbd9a2858	-0.07527226
86	0xbb140779	-0.0022587462
87	0xbad375dd	-0.0016133148
88	0xbd5295c1	-0.051412348
89	0x3cb48aca	0.022038836
90	0xbcd26af2	-0.025685761
91	0xbb9cb4b7	-0.004782285
92	0xbd482bc1	-0.048869852
93	0xbd2a3a5b	-0.04155956
94	0xbc7e02d3	-0.015503603
95	0xbb245fff	-0.0025081632
96	0xbc773fc9	-0.015090891
97	0xbc9f6796	-0.019458573
98	0xbd429727	-0.04750743
99	0xbcad82c9	-0.021180527
100	0xbd1ac724	-0.03778757
101	0xbc39570e	-0.011312259
102	0x3cb4c426	0.022066187
103	0xbd49dc01	-0.049282078
104	0xbcd2eaa2	-0.025746647
105	0xbd2db3e5	-0.04240789
106	0xbd74487f	-0.05963945
107	0x3b94e470	0.0045438334
108	0xbbc61e92	-0.0060461247
109	0x3bf2754b	0.0073992363
110	0x3d230c57	0.03980669
111	0xbd8427db	-0.06452914
112	0xbd28741d	-0.04112636
113	0x3c6697ec	0.014074307
114	0xbc99c7a1	-0.018771948
115	0xbd4b943c	-0.049701914
116	0x3cfa6798	0.030566975
117	0x3becce46	0.007226738
118	0x3bcaabe5	0.006185042
119	0xbcc0bc42	-0.023527268
120	0xbd3c7b5d	-0.046016086
121	0x3c87f0da	0.01659434
122	0xbd285927	-0.041100647
123	0xbd555343	-0.052081358
124	0xbca4d707	-0.020122064
125	0xbc8847a3	-0.016635722
126	0xbc38bc85	-0.011275415
127	0x3c32ce99	0.0109135145
128	0x3b9404c8	0.0045171715
129	0xbd429f3f	-0.04751515
130	0x3d147dfe	0.036252968
131	0x3cdba1cc	0.02681055
132	0xbd291717	-0.041281786
133	0xbd01d082	-0.03169299
134	0x3d15024c	0.036379144
135	0xbc460ede	-0.012088506
136	0x3c2cf94a	0.010557482
137	0xbd22945f	-0.03969228
138	0xbd00069e	-0.03125631
139	0x3d377c9e	0.04479658
140	0x3cb3ad7b	0.021933308
141	0xbd057c67	-0.032589342
142	0xbc9d858b	-0.019228717
143	0xbd7e301d	-0.062057603
144	0x3cb4ea02	0.02208424
145	0xbbbe5541	-0.005808503
146	0x39ce728e	0.00039376732
147	0xbd341b2a	-0.04397122
148	0xbd620dd3	-0.055188965
149	0xbb1eb976	-0.002421943
150	0x3d2dc29e	0.04242193
151	0x3d0fbb22	0.035090573
152	0xbca2d3d2	-0.019876394
153	0xbc2789f2	-0.01022576
154	0x3c9775e4	0.018488832
155	0xbccfcf8b	-0.025367519
156	0x3d265d6e	0.040616445
157	0x3cd7a2a5	0.026322672
158	0x3d262d12	0.040570326
159	0x3d5c0e9a	0.053724863
160	0x3bf82df8	0.0075738393
161	0x3d7c437e	0.061587803
162	0xbdbb6d3f	-0.091516964
163	0xbdaf5349	-0.08560807
164	0xbd1253ad	-0.03572433
165	0xbc95ec93	-0.018301284
166	0xbddbf88d	-0.10740767
167	0x3cbee8f1	0.023304434
168	0xbd58d429	-0.052936707
169	0xbcdead72	-0.027182315
170	0x3cf0b01f	0.029380856
171	0xb8ca60a5	-9.650112e-05
172	0xbc256214	-0.010094184
173	0xbcbce87e	-0.02306008
174	0xbcc7343a	-0.024316896
175	0x3be983e9	0.0071263206
176	0xbbc22bcc	-0.005925631
177	0xbcfdf626	-0.031001162
178	0x3c12e50c	0.008965742
179	0xbcdb44b2	-0.026766155
180	0x3dc44dc4	0.09585145
181	0x3d5d3fdd	0.054015983
182	0x3d1dca63	0.03852309
183	0x3da61fc2	0.08111526
184	0xbc35b2d5	-0.01109
185	0x3cf66e91	0.030082019
186	0x3d4d0368	0.050052077
187	0x3d6567b7	0.056007113
188	0x3dd747f2	0.10511769
189	0x3d782a36	0.06058713
190	0x3bab165b	0.005221171
191	0xbd67e2ea	-0.056612886
192	0x3d2b7f8f	0.041869696
193	0xbd5c9842	-0.053856142
194	0xbcfc3428	-0.030786589
195	0x3c0379e7	0.008024669
196	0xbcae8641	-0.021304252
197	0x3be6edd2	0.0070473934
198	0xbc685e54	-0.014182646
199	0xbdb0c612	-0.08631529
200	0x3cc26181	0.023728134
201	0xbd51ae2b	-0.05119149
202	0xbd0b8056	-0.034057938
203	0xbc090e28	-0.0083651915
204	0xbd706640	-0.058691263
205	0x3c9d93c3	0.019235497
206	0xbcc684f2	-0.024233315
207	0x3d4619aa	0.04836432
208	0x3cdbcbec	0.026830636
209	0x3b65c5c4	0.0035060504
210	0x3cdb8680	0.026797533
211	0x3d32ca92	0.043650217
212	0x3d891437	0.06693309
213	0xbc275d4d	-0.010215116
214	0x3d62f5a8	0.055410057
215	0x3c25671e	0.010095386
216	0xbd3141c7	-0.04327562
217	0xbd8c36e6	-0.068464085
218	0x3aeee5a0	0.0018226393
219	0x3cec5601	0.028849604
220	0xbca050a5	-0.019569704
221	0x3c675b85	0.014120941
222	0xbccf53b5	-0.02530847
223	0xbd0be2fd	-0.03415202
224	0x3b6d08c8	0.0036168564
225	0xbcf72a9f	-0.03017169
226	0xbd3783f8	-0.04480359
227	0xbdae4f3b	-0.08511206
228	0x3d71552d	0.05891912
229	0xbd429efb	-0.047514897
230	0xbc8a5d02	-0.016890053
231	0x3d63a029	0.055572663
232	0xbdc07504	-0.09397319
233	0xbd272a46	-0.0408118
234	0x3d721f7a	0.05911205
235	0x3d483076	0.04887434
236	0x3bca4d90	0.006173797
237	0x3ce5a5e5	0.028033206
238	0x3cf54995	0.029942313
239	0x3c2fe97d	0.01073682
240	0xbc599c13	-0.01328184
241	0x3ca97ad2	0.020688448
242	0x3d94eb47	0.07271438
243	0x3ce53f04	0.02798415
244	0x3b033fb9	0.0020026995
245	0xbbddbcca	-0.00676689
246	0x3d80d864	0.06291273
247	0x3d8d3d03	0.06896403
248	0x3d7028af	0.05863255
249	0xbd1ecaec	-0.03876774
250	0x3ca490e9	0.02008863
251	0x3d80ec18	0.06295031
252	0xbcd47843	-0.025936252
253	0xbd2a2c73	-0.041546296
254	0x3c23b138	0.009990983
255	0x3c76ff3f	0.015075504

bias f4 [128]
0	0x3d00b62e	0.03142374
1	0x3b817c94	0.0039516184
2	0x3d23ef4b	0.04002313
3	0xbc7691b7	-0.01504939
4	0x3cc3a15c	0.023880653
5	0xbcc67143	-0.02422393
6	0xbc5d8b2c	-0.013521951
7	0xbc7d035a	-0.015442694
8	0x3cdf2467	0.027239038
9	0xbba97510	-0.0051714256
10	0xbc877e4b	-0.016539713
11	0x3c54b81f	0.012983351
12	0xba501592	-0.00079377845
13	0xbcad36ef	-0.021144358
14	0x3d25266e	0.040319853
15	0xbc9c8b5f	-0.019109426
16	0xbd2f05c9	-0.042730127
17	0x3c9debca	0.019277472
18	0x3c789620	0.015172511
19	0xbd161154	-0.03663762
20	0x3d131ca3	0.035915982
21	0x3ccb395f	0.02480763
22	0xbc70acba	-0.014689619
23	0xbcb4c181	-0.022064926
24	0xbd0f40cd	-0.03497391
25	0x3d089163	0.033341777
26	0x3c092063	0.008369538
27	0xbc17022d	-0.009216827
28	0xbd079302	-0.033099182
29	0xbd241359	-0.040057514
30	0xbc91f327	-0.01781614
31	0x3b5ea52c	0.0033972962
32	0x3cae85b3	0.021303987
33	0x3d06f9f4	0.032953218
34	0x3ce31235	0.027718643
35	0x3d28626a	0.04110948
36	0xbc32de63	-0.010917279
37	0x3c902820	0.017597258
38	0xbba54ce9	-0.005044569
39	0x3d0aa06c	0.033844396
40	0xbbfe9429	-0.007769127
41	0xbcc070d8	-0.023491308
42	0x3cd489a2	0.025944535
43	0x3bb45b65	0.005504059
44	0xbcc96546	-0.024584424
45	0xbd0d73fe	-0.034534447
46	0xbb577a06	-0.0032879128
47	0x3bbedfb2	0.0058250064
48	0x3ca9b5e9	0.020716624
49	0x3d077ee3	0.033079993
50	0xbc665a6b	-0.014059643
51	0xbb942584	-0.004521074
52	0xbd04fc3b	-0.03246711
53	0x3c90d647	0.0176803
54	0xbd1b6996	-0.03794249
55	0xbca06fb9	-0.019584524
56	0xbc711b0b	-0.01471592
57	0xbcbe6d5b	-0.023245504
58	0x3cdc935d	0.026925737
59	0xbcdecb5d	-0.02719658
60	0x3cad7f55	0.02117888
61	0xbc888729	-0.016666012
62	0xbcfcbcfd	-0.030851835
63	0xbcaa282a	-0.020771105
64	0xbc290ec8	-0.0103184655
65	0xbca8cb76	-0.02060483
66	0x3c217146	0.009853667
67	0x3b6f8e9d	0.003655351
68	0xba2af83b	-0.00065219746
69	0xbc864c05	-0.01639367
70	0x3c233c81	0.009963156
71	0x3bca331d	0.006170644
72	0x3d2a7f88	0.04162553
73	0x3cb7a553	0.0224177
74	0x3cd5cdc3	0.026099091
75	0xbd2abb3e	-0.041682474
76	0x3bd1c7f3	0.0064020096
77	0x3c2bf7b5	0.01049607
78	0x3c004f9b	0.007831479
79	0x3c88bc34	0.016691305
80	0xbd053f07	-0.03253081
81	0xbd265f82	-0.040618427
82	0x3c7d23a9	0.015450397
83	0x3d0c64a9	0.034275685
84	0x3ca4023f	0.020020602
85	0xbcb8d831	-0.022564026
86	0xbc41e177	-0.01183354
87	0xbc00191d	-0.0078184875
88	0x3c4e79bb	0.012602265
89	0x3d011d3a	0.031522013
90	0x3ce12c71	0.027487012
91	0x3c4f236f	0.012642725
92	0xbbf273d8	-0.0073990636
93	0xbc003ccc	-0.007826995
94	0xbcc49798	-0.023998067
95	0xbc990f0f	-0.018683938
96	0xbb301662	-0.002686881
97	0x3cc33612	0.023829494
98	0x3ca71994	0.020397939
99	0x3c8b74d1	0.017023476
100	0x3cfca548	0.030840531
101	0x3b797575	0.0038064395
102	0xbcb6eb38	-0.022328958
103	0xbccbe738	-0.024890527
104	0xbc06e1a6	-0.00823251
105	0xbc9f1797	-0.019420428
106	0x3d224bf5	0.03962322
107	0xbcc463dd	-0.0239734
108	0x3ca5aaee	0.020223107
109	0xbcf5010f	-0.029907731
110	0x3b8815e5	0.0041530007
111	0x3c5185d3	0.012788254
112	0x3b9c0ba5	0.0047621303
113	0xbc723df8	-0.014785282
114	0xbc3274a0	-0.010892063
115	0xbb1379ca	-0.0022503012
116	0x3cce3645	0.025172362
117	0x3d0abeaf	0.033873256
118	0x3c9432b7	0.018090589
119	0xbd191dc2	-0.037381895
120	0x3cac29b0	0.021015972
121	0xbca2c3e8	-0.019868806
122	0x3bf7fae7	0.0075677517
123	0x3b25cf87	0.0025300698
124	0xba0f5855	-0.00054681796
125	0x3c44fd11	0.012023226
126	0x3b9d2e88	0.0047968067
127	0xbc5d8018	-0.013519309

weight f4 [128]
0	0x3f85482f	1.0412654
1	0x3f834b65	1.0257384
2	0x3f798d70	0.9748144
3	0x3f807af7	1.0037526
4	0x3f7bf73f	0.9842414
5	0x3f7fced5	0.99924976
6	0x3f7dff60	0.99217796
7	0x3f822dd7	1.0170239
8	0x3f7bfa36	0.98428667
9	0x3f7f69bf	0.9977073
10	0x3f862f02	1.0483096
11	0x3f81744d	1.0113617
12	0x3f81aeb0	1.0131435
13	0x3f7ecc5d	0.99530584
14	0x3f7790ac	0.96705127
15	0x3f73ac3c	0.95184684
16	0x3f7fd135	0.999286
17	0x3f829e26	1.0204513
18	0x3f7c1cd0	0.98481464
19	0x3f884185	1.0644995
20	0x3f83ebfc	1.0306392
21	0x3f74877b	0.95519227
22	0x3f7f2087	0.9965901
23	0x3f7d58f9	0.98963886
24	0x3f74ad4e	0.9557694
25	0x3f771c5d	0.96527654
26	0x3f835568	1.0260439
27	0x3f803ab6	1.0017917
28	0x3f812345	1.0088888
29	0x3f7d821f	0.99026674
30	0x3f82bc11	1.0213643
31	0x3f7b4b4e	0.9816178
32	0x3f7fc44c	0.999089
33	0x3f81ab5e	1.0130422
34	0x3f84c05a	1.0371201
35	0x3f78faa7	0.97257465
36	0x3f7cfe22	0.98825276
37	0x3f80f9e3	1.0076259
38	0x3f81224d	1.0088593
39	0x3f771ad6	0.96525323
40	0x3f80db90	1.0067005
41	0x3f7a2394	0.9771054
42	0x3f82bf26	1.0214584
43	0x3f8517bf	1.0397872
44	0x3f765d0b	0.9623572
45	0x3f829cca	1.0204098
46	0x3f843ebb	1.0331644
47	0x3f7ac3e1	0.9795514
48	0x3f835e11	1.0263082
49	0x3f808778	1.0041342
50	0x3f7be6e9	0.98399216
51	0x3f7592bb	0.9592702
52	0x3f810b22	1.0081522
53	0x3f800d8b	1.0004133
54	0x3f6ecaa6	0.93277967
55	0x3f830e47	1.0238732
56	0x3f83f803	1.0310062
57	0x3f79c8da	0.975721
58	0x3f819b8c	1.0125594
59	0x3f735778	0.9505534
60	0x3f7fea88	0.9996724
61	0x3f7d5139	0.9895206
62	0x3f7b73f2	0.98223794
63	0x3f794f73	0.97386855
64	0x3f8034a9	1.0016071
65	0x3f7b9014	0.9826672
66	0x3f807a02	1.0037234
67	0x3f838f8b	1.0278181
68	0x3f803380	1.0015717
69	0x3f7ca1a4	0.98684144
70	0x3f7b56f0	0.9817953
71	0x3f818edb	1.0121721
72	0x3f7ec3ec	0.99517703
73	0x3f829f40	1.0204849
74	0x3f70c192	0.94045365
75	0x3f8003e9	1.0001193
76	0x3f80516a	1.0024846
77	0x3f844850	1.0334568
78	0x3f80538c	1.0025496
79	0x3f6f1c5e	0.9340266
80	0x3f8213b6	1.0162265
81	0x3f854ee9	1.0414706
82	0x3f764d9a	0.9621216
83	0x3f792572	0.9732276
84	0x3f7defd8	0.991941
85	0x3f8212cd	1.0161988
86	0x3f8020fc	1.0010066
87	0x3f738655	0.9512685
88	0x3f805057	1.0024518
89	0x3f7f6a69	0.99771744
90	0x3f7a2ec6	0.9772762
91	0x3f831b0c	1.0242629
92	0x3f802ed1	1.0014287
93	0x3f83aafc	1.0286555
94	0x3f814bc4	1.0101247
95	0x3f82972a	1.0202382
96	0x3f811102	1.0083315
97	0x3f845937	1.0339726
98	0x3f820ded	1.01605
99	0x3f774ed3	0.9660465
100	0x3f7a8f49	0.97874886
101	0x3f7c3bf0	0.9852896
102	0x3f845ca5	1.0340773
103	0x3f76dcc1	0.96430594
104	0x3f7b9bb4	0.9828446
105	0x3f7a49a0	0.9776859
106	0x3f77964e	0.9671372
107	0x3f7dca29	0.99136597
108	0x3f80441b	1.0020784
109	0x3f77e8f4	0.96839833
110	0x3f7b7341	0.9822274
111	0x3f73f1c7	0.952908
112	0x3f8548fd	1.0412899
113	0x3f834bba	1.0257485
114	0x3f80b7a4	1.0056043
115	0x3f773e5c	0.9657953
116	0x3f7acf57	0.97972625
117	0x3f766b5b	0.9625756
118	0x3f80ec02	1.0072024
119	0x3f84ec15	1.0384547
120	0x3f85b85e	1.0446889
121	0x3f7f1229	0.99637085
122	0x3f80d76f	1.0065745
123	0x3f77586b	0.9661929
124	0x3f7eab4d	0.99480134
125	0x3f7b7fdd	0.9824198
126	0x3f7087a9	0.93957
127	0x3f855079	1.0415183

bias f4 [128]
0	0x3c904c6b	0.017614564
1	0x3c064a7e	0.008196471
2	0xbd14bc8e	-0.036312632
3	0xbd1693cd	-0.036762048
4	0xbc7e2fe4	-0.015514348
5	0xbd7d90ac	-0.061905548
6	0xbda51f0b	-0.080625616
7	0xbd44bac7	-0.048029687
8	0xbd51573b	-0.05110858
9	0xbd3ff143	-0.046860944
10	0xbd14e0ad	-0.03634708
11	0x3c12e085	0.008964662
12	0xbcd2d3e6	-0.025735807
13	0xba265f1a	-0.00063465687
14	0xbde1b12f	-0.11020123
15	0xbd83c9d0	-0.06434977
16	0xbce5373e	-0.027980443
17	0xbd278961	-0.0409025
18	0xbc97b4d2	-0.018518839
19	0x3c22b2fa	0.009930367
20	0x3b64945b	0.0034878466
21	0xbd5c8c66	-0.053844832
22	0x3ba5ddbd	0.0050618337
23	0xbceb6b94	-0.02873782
24	0xbda5d7bd	-0.080977894
25	0xbd3f2df2	-0.046674676
26	0x3cb6d33b	0.02231752
27	0x3c0a0374	0.008423675
28	0xbc23f42a	-0.010006944
29	0xbcb8013e	-0.02246153
30	0xbd5d7879	-0.05406997
31	0xbdbc628d	-0.091984846
32	0xbb3bd7fd	-0.0028662675
33	0xbb3e8792	-0.0029072505
34	0x3cdbcaa5	0.026830027
35	0xbd27d1f6	-0.04097172
36	0xbd029db1	-0.031888667
37	0xbd262be5	-0.040569205
38	0xbd33f6c9	-0.043936525
39	0xbd5358f0	-0.05159849
40	0xbc0bc786	-0.008531457
41	0xbd4db882	-0.05022479
42	0xbcac3da3	-0.021025484
43	0xba01f8da	-0.0004958041
44	0xbd0f449f	-0.03497755
45	0xbbefa74e	-0.0073136454
46	0xbc3cb8ca	-0.0115186665
47	0xbcfc2911	-0.0307813
48	0x3c81af65	0.015830705
49	0xbc2e5bca	-0.010642001
50	0xbced3d7d	-0.028959984
51	0xbd82ca4c	-0.06386241
52	0x3b8caf20	0.0042933375
53	0xbd87f737	-0.06638949
54	0xbd1ca0d2	-0.038239308
55	0x3bbb3d39	0.0057140854
56	0xbd5cdbfb	-0.053920727
57	0xbcc188ba	-0.023624767
58	0x3bd168b6	0.0063906563
59	0xbd4b9714	-0.049704626
60	0xbcb0f85e	-0.021602806
61	0xbd5a1545	-0.05324294
62	0xbc44d86c	-0.01201449
63	0xbcaed709	-0.021342771
64	0x3c8ea557	0.017412825
65	0xbc6e5971	-0.014547692
66	0xbc80bec1	-0.015715959
67	0x3c319e20	0.010840923
68	0xbc6a2898	-0.014291905
69	0xbda5ddc1	-0.08098937
70	0xbcf63309	-0.030053632
71	0x3c81f162	0.01586217
72	0xbac23548	-0.0014816904
73	0x3c157850	0.009122923
74	0xbda092c4	-0.07840493
75	0x3ae04a0f	0.0017111915
76	0xbce57434	-0.028009512
77	0xbccfcdb8	-0.025366649
78	0xbc506357	-0.012718997
79	0xbd16c002	-0.036804207
80	0xbcbaeec5	-0.022818932
81	0xbcb43ab0	-0.02200064
82	0xbd655b4d	-0.055995274
83	0xbd97221b	-0.07379552
84	0xbac6588e	-0.0015132593
85	0xbd2443e1	-0.040103797
86	0xbc618057	-0.013763509
87	0xbd63fdbd	-0.055661906
88	0xbc10147e	-0.008793948
89	0xbd336eca	-0.04380683
90	0xbc804a85	-0.015660534
91	0xbc5de7ca	-0.013544032
92	0xbcc87ea6	-0.024474453
93	0xbb9782bb	-0.0046237386
94	0xbcc5017a	-0.024048556
95	0x3c82fc42	0.015989427
96	0x3be14fbf	0.0068759616
97	0x3c05078f	0.008119478
98	0xbd042c02	-0.03226853
99	0xbd5cff69	-0.053954516
100	0xbd5ca6c5	-0.05386998
101	0xbcad18c1	-0.021129968
102	0xbcb5e535	-0.022204021
103	0xbd7e23ac	-0.062045738
104	0xbd2d19b0	-0.042260826
105	0xbd151ed6	-0.03640636
106	0xbd1b1abf	-0.037867304
107	0xbbc6382a	-0.0060491757
108	0xbc3b1a8e	-0.011419905
109	0xbd4c1439	-0.049823973
110	0xbd808e77	-0.06277173
111	0xbdc7ddc8	-0.09759098
112	0x3bc5f2c6	0.0060409037
113	0xbba925f6	-0.005161996
114	0xbc90d2ad	-0.017678583
115	0xbd2304f1	-0.039799634
116	0xbd1fd154	-0.03901799
117	0xbca859c6	-0.02055062
118	0x3b894ad2	0.0041898275
119	0x3ae3cffa	0.0017380707
120	0xbb184cb6	-0.0023239083
121	0xbd2dfebd	-0.042479265
122	0xba46fb96	-0.000759059
123	0xbd1117ee	-0.03542321
124	0xbcc8ec57	-0.024526758
125	0xbccd5b8b	-0.025068065
126	0xbd566e8b	-0.052351516
127	0xbbcc578b	-0.006236022

running_mean f4 [128]
0	0xbf57f568	-0.84358835
1	0xbea3ca87	-0.31990454
2	0xbf5a5a2e	-0.85293853
3	0xbfa980b7	-1.3242406
4	0x3f85afcf	1.0444278
5	0x3f65187f	0.89490503
6	0x3f1db33c	0.61601615
7	0x3f649e28	0.8930383
8	0x3e99723a	0.2996996
9	0xbd165f76	-0.036712132
10	0x3ed985e3	0.4248496
11	0xbf318841	-0.6934853
12	0x3fbe30b6	1.4858615
13	0xbf1fc7c4	-0.62414193
14	0xbf181748	-0.59410524
15	0x3f4c0606	0.7969669
16	0x3f03970c	0.51402354
17	0x3f4df621	0.8045369
18	0xbf72c3fd	-0.94830304
19	0xbe4d3975	-0.2004145
20	0xbd8e4594	-0.06946865
21	0xc03b7c1e	-2.9294505
22	0xbf7633b9	-0.9617267
23	0x3fbf4133	1.4941772
24	0xbf510a95	-0.8165677
25	0xbe896418	-0.26834178
26	0xbf5dc08d	-0.86621934
27	0x3f05d5b3	0.52279204
28	0x3fc73e1e	1.5565832
29	0xc03df802	-2.9682622
30	0x3f34cc84	0.70624566
31	0x3f360c0a	0.7111212
32	0x3f38f624	0.7225058
33	0xbf72c328	-0.94829035
34	0xbd3a4060	-0.04547155
35	0x3d9f6347	0.077826075
36	0x3e413256	0.18866858
37	0x3fe05ee2	1.7528956
38	0x3fb9e52b	1.4523062
39	0xbeab171d	-0.33416072
40	0xbe86e746	-0.26348323
41	0xbf10c547	-0.5655102
42	0x3ef4db75	0.47823682
43	0xbf4e94f6	-0.80696046
44	0x3f110e69	0.56662613
45	0x3f1f2b40	0.6217537
46	0x3e79da77	0.24399744
47	0xbddbff20	-0.107420206
48	0x3f91628c	1.1358199
49	0xc01663e6	-2.3498473
50	0x3d6aaf49	0.05729607
51	0x3f5d02fc	0.8633268
52	0xbf2b851d	-0.6699999
53	0x3fcd1c8d	1.6024338
54	0x3fc863d3	1.5655464
55	0x3fa85aa9	1.3152667
56	0xbdac645c	-0.084175795
57	0x3df2fb39	0.11864323
58	0xbd1ca32d	-0.038241554
59	0x3f245b45	0.64201766
60	0x3f87319d	1.0562016
61	0x3f943f9d	1.1581913
62	0xc0072864	-2.1118402
63	0xbf475145	-0.7785838
64	0xbf2af067	-0.66773075
65	0xbf9ecb7f	-1.2405852
66	0x3e3fdda5	0.18736894
67	0xbedc5b2c	-0.4303831
68	0x3f8f3464	1.1187863
69	0x3f922e89	1.1420451
70	0xbf881e1c	-1.0634189
71	0xbf02ede5	-0.5114425
72	0xbfa54189	-1.2910625
73	0x3f8df5fd	1.1090695
74	0xbf715de1	-0.9428387
75	0xbf884ae3	-1.0647854
76	0x3f778d7e	0.96700275
77	0x3f7aa1ad	0.9790295
78	0xbd50e7fe	-0.051002495
79	0xc00d7668	-2.210352
80	0x3ef27463	0.4735442
81	0x3f27ac8d	0.65497667
82	0x3f54eb1d	0.83171254
83	0x3f9f6b43	1.2454609
84	0xbeafaada	-0.34310037
85	0x3ee4c8db	0.4468449
86	0x3f818405	1.0118414
87	0x3d2a9c9b	0.041653257
88	0x3e25deb4	0.16198236
89	0xbd3158c0	-0.04329753
90	0xbf24c7bf	-0.6436729
91	0x3eb6cc10	0.35702562
92	0x3f99d364	1.2017636
93	0x3f027df0	0.50973415
94	0x3f84bc49	1.036996
95	0xc010eccc	-2.264453
96	0xbfe83ab7	-1.8142918
97	0xbf4d5117	-0.8020186
98	0x3ec28080	0.37988663
99	0x3f431213	0.76199454
100	0xbe7dccc3	-0.24785142
101	0xbffe39b5	-1.9861361
102	0x3fb223f6	1.3917224
103	0xbfb07a99	-1.3787414
104	0xbdcb5f18	-0.09930247
105	0x3fcaf3a6	1.5855606
106	0xbff7e55d	-1.9366871
107	0xbf75f24b	-0.96072835
108	0xbfa7447a	-1.3067772
109	0x3e576190	0.21033311
110	0x3e910024	0.2832042
111	0xbe8740db	-0.26416668
112	0x3f2c1fc1	0.6723595
113	0x3f48ffcc	0.78515315
114	0xbf33dab6	-0.702556
115	0xc024e778	-2.5766277
116	0xbe08088a	-0.13284507
117	0xbf949637	-1.1608342
118	0xbe060a7e	-0.1308994
119	0x3febf625	1.8434492
120	0x3f88af4d	1.0678498
121	0xbf1b7d7b	-0.60738343
122	0xbfd95be8	-1.6981173
123	0xbfd89833	-1.6921448
124	0xbf8db12e	-1.1069696
125	0x3eb1a6ca	0.34697562
126	0x3eb117f8	0.345886
127	0x3fa4164e	1.2819307

running_var f4 [128]
0	0x3fa5355a	1.2906907
1	0x3f94fb94	1.1639276
2	0x3fc1644f	1.5108737
3	0x3fa3f260	1.2808342
4	0x3f9093f1	1.1295148
5	0x3f72e4f0	0.9488058
6	0x3fa1934b	1.2623075
7	0x3f6cb2ce	0.92460334
8	0x3fb49cf4	1.4110398
9	0x3f9fd614	1.2487206
10	0x3f962474	1.1729875
11	0x3f76e9fe	0.96450794
12	0x3fd1fd48	1.640542
13	0x3f917a2d	1.136541
14	0x3faba103	1.3408512
15	0x3fa54399	1.2911254
16	0x3fadcafd	1.3577572
17	0x3f5f3f8f	0.8720636
18	0x3f8e07a0	1.1096077
19	0x3fa10a45	1.2581259
20	0x3f62cbf4	0.8859246
21	0x4019df22	2.404244
22	0x3f97e40a	1.1866467
23	0x3f64fb8c	0.8944633
24	0x3f810ee4	1.0082669
25	0x3fae6024	1.362309
26	0x3f8aad9a	1.0834229
27	0x3faf224b	1.368234
28	0x3f962102	1.1728823
29	0x403dd3ae	2.966045
30	0x3f8c2a6b	1.0950445
31	0x3fa75f21	1.3075906
32	0x3f88e236	1.0694034
33	0x3f8b4210	1.0879536
34	0x3fbc05be	1.4689252
35	0x3f5f2cf5	0.87177974
36	0x3f864489	1.0489665
37	0x3f7fde3a	0.99948466
38	0x3f8b3431	1.0875303
39	0x3fadc29b	1.3575014
40	0x3f8f8949	1.1213771
41	0x3ffda588	1.9816141
42	0x3f3cd13c	0.73756766
43	0x3f3bfe94	0.7343533
44	0x3fb5734f	1.4175814
45	0x3f53ad62	0.82686436
46	0x3f659582	0.89681256
47	0x3f387c70	0.72064877
48	0x3fbb3486	1.4625404
49	0x3fdf8b14	1.7464318
50	0x3fa69fac	1.3017478
51	0x3f5bce0d	0.85861284
52	0x3f95192c	1.1648307
53	0x3fa8ec7d	1.319717
54	0x3fde54dd	1.7369648
55	0x3fcc2f85	1.5952002
56	0x3f37bbfa	0.71771204
57	0x3fcbb73e	1.5915296
58	0x3f94f900	1.1638489
59	0x3f4ee288	0.8081441
60	0x3f9768d9	1.1828872
61	0x3f826a10	1.0188618
62	0x400fbc53	2.2458694
63	0x3fb915d9	1.4459792
64	0x3f733b88	0.9501271
65	0x3fa61bad	1.2977196
66	0x3f95cc95	1.1703058
67	0x3f6f0126	0.9336113
68	0x3f46410f	0.7744302
69	0x3f586427	0.8452782
70	0x3face5b5	1.3507601
71	0x3ff00f48	1.8754663
72	0x3f6dd114	0.9289715
73	0x3f8d9946	1.10624
74	0x3fc4a13d	1.5361706
75	0x3fbc74fb	1.47232
76	0x3f879fe2	1.0595667
77	0x3f849aa8	1.0359697
78	0x3fa2354c	1.2672515
79	0x40869c26	4.206561
80	0x3fbac449	1.4591151
81	0x3f36e49d	0.71442586
82	0x3f6bbaa9	0.92081696
83	0x3f4524c6	0.77009237
84	0x3f1f9d1a	0.6234909
85	0x3fa2fa79	1.2732688
86	0x3f2b9cc4	0.6703608
87	0x3fbac483	1.4591221
88	0x3f6eca47	0.932774
89	0x3f3ff6c7	0.7498593
90	0x3f9011aa	1.1255391
91	0x3f6237f3	0.8836662
92	0x3f465621	0.7747517
93	0x3f1cf251	0.61307245
94	0x3f93a23a	1.1533883
95	0x3fdf978e	1.7468126
96	0x3f868911	1.0510579
97	0x3f242cf2	0.6413108
98	0x3f81c09a	1.0136902
99	0x3f43a291	0.7641993
100	0x3f2d9775	0.6780923
101	0x3fcf214a	1.6182034
102	0x3fe77fed	1.8085915
103	0x3f97c7c4	1.1857839
104	0x3fce701b	1.6127962
105	0x3f9d9e77	1.2313985
106	0x3fd02fcc	1.6264586
107	0x3f87821a	1.0586579
108	0x3fd0172b	1.625707
109	0x3f822604	1.0167851
110	0x3f5a767c	0.8533704
111	0x3f913a6f	1.1345958
112	0x3fc4eee5	1.5385405
113	0x3f6e6cf2	0.9313499
114	0x3f60e2a6	0.8784584
115	0x3feb3e16	1.8378322
116	0x3fa17c19	1.2615997
117	0x400fc50d	2.246402
118	0x3f7b0dbf	0.9806785
119	0x3f7500cf	0.9570436
120	0x3f406d84	0.7516711
121	0x3f787a63	0.9706175
122	0x3f9cba00	1.2244263
123	0x3f92347e	1.1422269
124	0x3fa4673a	1.2844002
125	0x3f70a2c3	0.93998355
126	0x3f98e8ba	1.1946023
127	0x3fc52fb3	1.5405182
