integrated_bi_1k2_wd_4_new/rsst_integrated_bi_1k2_wd_4.onnx (onnx, 879662 bytes, 2 tensors)

fc1.bias f4 [32]
00000000: de5d acbc 8c98 923d b549 d33d e4de 813d
00000010: 78f2 31bd a008 67bd 0117 0fbc d682 2a3d
00000020: 6a26 70bd f9cc 823d 1f03 663d 7159 8c3c
00000030: 9f4c 6dbd e24e 07bb a4d7 e53d 4420 6dbd
00000040: 4435 49bd 3c76 4f3c f6cc 7f3c e0c9 533d
00000050: 83f2 713d bf4b 3cbd 4dee 6c3d 3536 98bd
00000060: 891c 8e3c 7316 4b3d 707d c63d 5395 bfbd
00000070: 2cb8 343d 0dc8 dcbb e3a6 0bbd e904 d53d
-0.021040853 0.07158002 0.10316793 0.06341341 -0.043444127 -0.05640471 -0.008733512 0.04162868
-0.058630385 0.06386752 0.05615532 0.017132493 -0.0579344 -0.0020646383 0.11222771 -0.0578921
-0.049123064 0.012662467 0.015612831 0.051706195 0.059069168 -0.045970675 0.05784445 -0.07432214
0.017347591 0.049581956 0.09691894 -0.09354653 0.044120952 -0.006737715 -0.034094702 0.10401327

fc2.weight f4 [1, 32]
00000000: 75e6 58be 1515 f83d fda7 f73d 5807 14be
00000010: eb4d 10be a67d 43be 8944 74be 77a4 a83d
00000020: c9ee 70be a5a5 ec3d fd99 0a3e 5dc9 073e
00000030: b756 16be 6761 f93d 1c61 38be aaab ce3d
00000040: 0285 32be 6d46 0bbe b51d 063e aac7 ca3d
00000050: 3247 ea3d 0e01 22be 965a 19be 3022 2bbe
00000060: a09d 2f3e a6a8 163e fad0 f83d 8f0a 48be
00000070: aae5 68be e1f5 1c3e cf70 68be 4440 ba3d
-0.21181662 0.12113396 0.12092588 -0.14455926 -0.14092223 -0.190909 -0.23854269 0.08234494
-0.2352859 0.11555032 0.13535304 0.13260408 -0.14681517 0.12176781 -0.18005794 0.10091336
-0.17433551 -0.13601084 0.1309727 0.09901364 0.11439361 -0.15820715 -0.14975962 -0.1671226
0.17149973 0.14712772 0.12149234 -0.19535278 -0.2274386 0.1532817 -0.22699283 0.09094289
